Logs/lr_ratio/classifier_webcam_amazontdm_epoch120_1.pt (torch, 32807 bytes, 2 tensors)

weight f4 [31, 256]
0	0xbd6a26b3	-0.057165813
1	0x3da8638e	0.082221135
2	0xbd1965d2	-0.03745062
3	0xbd8d3341	-0.068945415
4	0xbd526b82	-0.05137206
5	0xbd2cdb19	-0.042201135
6	0xbcfb0180	-0.030640364
7	0x3e134340	0.14381123
8	0x3e055e1f	0.13024186
9	0xbd252089	-0.04031423
10	0xbd47252b	-0.04861943
11	0xbd70d7fd	-0.058799732
12	0xbd045d85	-0.03231575
13	0xbd814604	-0.063121825
14	0xbc99f775	-0.018794755
15	0xb9ecc636	-0.00045161106
16	0xbd1d3ddd	-0.038389076
17	0xbd6de506	-0.058079742
18	0x3e13fb8d	0.14451428
19	0xbd58c2a4	-0.05292
20	0xbc50a502	-0.012734653
21	0xbd8ade3c	-0.06780669
22	0xbc867596	-0.016413491
23	0x3df49eb3	0.11944332
24	0xbd4bbd1c	-0.049740896
25	0xbd4ab46e	-0.049488477
26	0xbcd1bad3	-0.02560178
27	0xbd8440d2	-0.06457676
28	0xbd3b540e	-0.045734458
29	0xbd17edae	-0.037091903
30	0xbd616aa4	-0.05503334
31	0x3da7a50c	0.08185777
32	0x3d640399	0.055667493
33	0x3d8a0824	0.06739834
34	0xbd31e945	-0.043435354
35	0xbd0f3cbd	-0.034970034
36	0xbcc692c1	-0.0242399
37	0xbd6c199d	-0.057641614
38	0x3e3021ec	0.1720044
39	0xbda57239	-0.08078427
40	0xbd17c336	-0.037051402
41	0xbd306bf0	-0.043071687
42	0xbd2c2405	-0.04202654
43	0xbb91bbbd	-0.004447429
44	0x3df50535	0.11963884
45	0xbd57ecea	-0.052716173
46	0x3df9c83e	0.12196396
47	0x3d9a9252	0.0754744
48	0xbcd280eb	-0.025696239
49	0xbce51c58	-0.027967617
50	0x3e11a36d	0.14222498
51	0xbd5f52c3	-0.054522287
52	0x3d914ab4	0.070943266
53	0xbd7cb357	-0.06169447
54	0xbd80b02d	-0.06283603
55	0x3db6cede	0.089261755
56	0xbd0ade37	-0.033903327
57	0xbdb42d41	-0.08797694
58	0xbd774665	-0.060369868
59	0xbc215d9c	-0.009848978
60	0xbd8398c2	-0.064256206
61	0x3d946d0b	0.07247361
62	0x3ddac27b	0.106816255
63	0x3e0fedd9	0.14055575
64	0xbd82118f	-0.06351005
65	0x3dd5a9ad	0.10432754
66	0xbd56f242	-0.05247713
67	0xbd3d5f78	-0.046233624
68	0xbd2542c3	-0.040346872
69	0xbd8b2834	-0.067947775
70	0x3e1556f5	0.14583953
71	0x3e1c8a82	0.15287212
72	0x3dcc2aff	0.09969138
73	0x3d2b9614	0.041891173
74	0xbd263511	-0.04057795
75	0xbd238c30	-0.039928615
76	0x3e2127b8	0.15737808
77	0xbd513184	-0.051072612
78	0x3d515339	0.051104758
79	0x3da1a268	0.07892305
80	0xbd1ce1ed	-0.038301397
81	0x3d8bdcec	0.06829247
82	0xbd4f0f16	-0.050551496
83	0xbd525a65	-0.05135574
84	0xbd710ca2	-0.05884994
85	0xbd074880	-0.033028126
86	0xbda47e95	-0.08031956
87	0xbd4e654c	-0.050389573
88	0x3d8d901c	0.06912252
89	0xbca69454	-0.0203344
90	0xbd5584d8	-0.052128643
91	0x3c37b1b5	0.011211802
92	0xbd6090b6	-0.054825507
93	0xbd22b5f2	-0.039724298
94	0x3c5a3cd5	0.013320168
95	0xbd5740fd	-0.052552212
96	0xbcd0e405	-0.025499353
97	0x3d9242d2	0.07141651
98	0x3d8ecc2d	0.06972537
99	0xbd97ed11	-0.07418264
100	0xbd8a9755	-0.067671455
101	0xbbb2c097	-0.0054550874
102	0x3dcf5e43	0.10125401
103	0xbd8d0b06	-0.06886868
104	0xbd584bd5	-0.052806694
105	0x3d9d6163	0.07684591
106	0xbcbf5194	-0.02335433
107	0xbd81d1ea	-0.06338866
108	0x3e09f050	0.13470578
109	0x3e1501b9	0.14551438
110	0x3e2aa948	0.16666138
111	0xbd71df3b	-0.05905078
112	0xbc4d536f	-0.012532099
113	0xbd90c5be	-0.07068966
114	0xbd623b73	-0.055232476
115	0xbd6f78f3	-0.058464956
116	0xbd5f05a0	-0.054448724
117	0x3df502b1	0.11963404
118	0xbce5f45f	-0.028070627
119	0x3e1e2d17	0.15446888
120	0xbd199aee	-0.037501268
121	0x3d8416c2	0.06449653
122	0xbce7abb6	-0.02828012
123	0x3da7add9	0.08187456
124	0xbd65a5fb	-0.056066494
125	0x3dc5b422	0.09653498
126	0xbd04e908	-0.0324488
127	0xbd65f0e8	-0.05613795
128	0xbcffa7d4	-0.031207956
129	0xbd8fd3f2	-0.07022847
130	0x3e174852	0.14773682
131	0xbd33db69	-0.043910418
132	0xbd274602	-0.04083825
133	0xbca3350c	-0.019922756
134	0xbda2cebb	-0.07949587
135	0x3d85bbbf	0.0652995
136	0xbd3f3c4e	-0.04668837
137	0x3e0421ba	0.1290349
138	0x3dd900ab	0.105958305
139	0x3d903489	0.0704127
140	0xbd55b8b6	-0.052178107
141	0xbd7c674a	-0.06162194
142	0xbd01b0cb	-0.031662744
143	0xbceac71d	-0.028659398
144	0x3e321224	0.17389733
145	0xbc9dd5a2	-0.019266907
146	0x3cdc06d0	0.026858717
147	0xbd822a83	-0.06355765
148	0x3d5905c8	0.05298403
149	0xbc9f5b18	-0.019452617
150	0x3cccad81	0.024985077
151	0xbd3fa934	-0.046792224
152	0xbd81fb6e	-0.063467845
153	0x3e019924	0.12656075
154	0xbd461bc1	-0.048366312
155	0xbc621eb7	-0.013801268
156	0xbd4a1964	-0.04934062
157	0xbd51cbf8	-0.05121991
158	0xbcc9626b	-0.024583062
159	0xbd4ba347	-0.04971626
160	0xbcba2387	-0.022722019
161	0xbd797d58	-0.060910553
162	0xbcce0299	-0.025147723
163	0x3daff5cb	0.08591803
164	0xbd2dfb0a	-0.042475738
165	0xbd838938	-0.06422657
166	0xbd332792	-0.04373891
167	0x3d2fca69	0.042917643
168	0x3daf6751	0.08564628
169	0xbd4969d3	-0.049173187
170	0xbd7b7bff	-0.06139755
171	0xbd19a3c1	-0.037509684
172	0xbd531642	-0.0515349
173	0xbbd7b1d9	-0.0065824804
174	0xbcecfbef	-0.028928725
175	0x3d1357dd	0.035972465
176	0xbcbf2f20	-0.0233379
177	0x3e05b386	0.13056764
178	0xbd2c6cb8	-0.04209587
179	0xbd11d0d0	-0.03559953
180	0xbd8302f8	-0.063970506
181	0xbd72ff16	-0.0593253
182	0x3dd52deb	0.10409149
183	0xbd1d8865	-0.038460154
184	0xbd663f36	-0.056212626
185	0xbd6f4a07	-0.058420207
186	0xbd53e8a6	-0.051735543
187	0xbd1b6a49	-0.03794316
188	0x3e0ed975	0.13950141
189	0x3c71e49f	0.01476398
190	0xbd4e9dba	-0.05044339
191	0x3d6c10ad	0.05763309
192	0xbd7db111	-0.06193644
193	0xbcdb9463	-0.026804155
194	0xbcaf6570	-0.021410674
195	0x3df60f2e	0.12014614
196	0xbd8392af	-0.06424462
197	0xbcd3862e	-0.025820818
198	0x3d9e2075	0.077210344
199	0xbd403ec0	-0.046934843
200	0xbd4c6d0a	-0.049908675
201	0x3e004572	0.12526491
202	0xbd4344ba	-0.047672965
203	0x3dd81af2	0.105520144
204	0xbd1c86ca	-0.038214482
205	0xbd64698a	-0.055764712
206	0xbd2910ac	-0.041275665
207	0xbd8c508b	-0.068513
208	0xbb4a23e9	-0.0030844158
209	0xbd12d04a	-0.03584317
210	0xbcaff2bc	-0.02147805
211	0xbd5e0ad0	-0.05420953
212	0xbd7bc2b9	-0.061465
213	0xbd775348	-0.060382158
214	0xbd7de05e	-0.06198155
215	0x3d310608	0.043218642
216	0x3e0ba15e	0.13635775
217	0xbd497971	-0.04918808
218	0xbd137eb7	-0.036009517
219	0xbd4e0a63	-0.050302874
220	0x3d464932	0.04840965
221	0xbd4b44c7	-0.049626138
222	0x3ddfefcf	0.10934412
223	0x3e0cfdc5	0.1376868
224	0x3c3f0619	0.011659169
225	0xbd30ca18	-0.04316148
226	0xbd15956a	-0.036519445
227	0xbd2e4d6f	-0.042554315
228	0xbd7ce142	-0.06173826
229	0xbcef9d5d	-0.029249841
230	0xbd69f967	-0.057122614
231	0xbd56f6cb	-0.052481454
232	0xbd8c0b5c	-0.06838104
233	0xbdad1e84	-0.08453086
234	0x3bc9bf58	0.006156843
235	0xbd66c2ff	-0.056338307
236	0x3df3c35a	0.11902495
237	0x3c63b8ad	0.013899011
238	0xbd6e6dbe	-0.058210127
239	0xbd244273	-0.040102433
240	0xbd3c5894	-0.045982912
241	0xbd6807bc	-0.056648
242	0xbc802810	-0.015644103
243	0xbd4ec208	-0.05047801
244	0xbd09d73f	-0.03365254
245	0xbcb643cd	-0.022249127
246	0xbd4f31ce	-0.050584607
247	0x3d6ee923	0.058327805
248	0xbd5ad19a	-0.053422548
249	0xbd7cd6e9	-0.06172839
250	0x3dee9da7	0.116511635
251	0xbd11b7b5	-0.035575587
252	0xbd553661	-0.052053813
253	0x3dfa46ea	0.12220557
254	0xbd22837c	-0.039676175
255	0x3e057548	0.1303302

bias f4 [31]
0	0xbc8a45a3	-0.016878909
1	0xbc8e5b25	-0.017377445
2	0xbb7d0b32	-0.003861141
3	0xbcbfb871	-0.023403378
4	0xbd3b9957	-0.045800533
5	0x3bb76749	0.0055970293
6	0x3cb82193	0.022476947
7	0xbcb5c0d8	-0.022186682
8	0xbba6d9ae	-0.0050918674
9	0xba99e8ad	-0.0011742316
10	0xba0f3681	-0.0005463139
11	0xbc6fbc67	-0.014632321
12	0xbc1212e2	-0.008915635
13	0xbd1e47d0	-0.038642704
14	0xbbdfce47	-0.00683001
15	0x3c556625	0.013024841
16	0x3ccb6c3b	0.024831882
17	0xbccb5401	-0.02482033
18	0xbd17973e	-0.03700947
19	0xbc208d9f	-0.00979939
20	0xbd0d1883	-0.034447204
21	0xbd04a462	-0.03238333
22	0xbc8bfe8c	-0.01708915
23	0x3c10f4f4	0.008847464
24	0x3cf6e6e5	0.030139396
25	0xbcd130ff	-0.025536058
26	0x3b950e30	0.0045488104
27	0x3ec3382f	0.38128802
28	0x3b9feb37	0.0048803347
29	0xbc71cd6c	-0.014758449
30	0xbceffcf8	-0.02929543
