Logs/lr_ratio/classifier_webcam_amazontdm_epoch120_0.01.pt (torch, 32807 bytes, 2 tensors)

weight f4 [31, 256]
000000 f8 30 6f bd 8d 5b 92 3d 38 c0 11 bd 0a d0 92 bd
       -0.05839631 0.07146368 -0.035583705 -0.071685866
000010 4e 1f 33 bd ed 4d 2d bd 3c 83 dd bc 8a c9 0e 3e
       -0.043731026 -0.042310644 -0.027040116 0.13944069
000020 c4 b0 fa 3d 7f 83 2a bd fe 9e 3e bd ac 1a 6b bd
       0.122407466 -0.04162931 -0.046538346 -0.057398483
000030 06 9f 0d bd 51 ba 78 bd 3c a2 6e bc 9d da b6 3a
       -0.034575485 -0.06072456 -0.014565047 0.001395065
000040 e1 28 e5 bc b8 62 6b bd 81 65 0a 3e 41 a8 7b bd
       -0.027973594 -0.057467192 0.13515283 -0.061439756
000050 4e 06 7d bc 90 17 82 bd 07 1b ac bc a7 65 e9 3d
       -0.015443398 -0.063521504 -0.021008981 0.11396342
000060 38 ea 3b bd 40 b8 3e bd 57 d1 ca bc 3d d7 84 bd
       -0.045877665 -0.046562433 -0.024758024 -0.06486366
000070 23 cc 32 bd b1 5b 10 bd 59 84 61 bd 08 f0 97 3d
       -0.04365171 -0.035243694 -0.055057857 0.07418829
000080 b8 ff 4e 3d 51 86 87 3d 29 aa 18 bd 34 0c 1b bd
       0.05053684 0.06617416 -0.037271652 -0.037853435
000090 8a 07 c9 bc 13 22 50 bd 7d a8 2d 3e 85 0f 9f bd
       -0.024539728 -0.050813746 0.16958804 -0.07766632
0000a0 18 a4 1b bd 54 e5 2b bd 73 0e 23 bd 6f 09 0e 3b
       -0.03799829 -0.04196675 -0.0398087 0.0021673103
0000b0 36 c5 e5 3d e3 d4 47 bd 8c c8 e2 3d c9 37 9e 3d
       0.112192556 -0.04878701 0.110734075 0.07725484
0000c0 fa 69 c5 bc a9 b1 b4 bc 0f 9f 09 3e 69 72 4a bd
       -0.024098385 -0.022057371 0.13439582 -0.049425516
0000d0 f3 a8 83 3d be 2b 68 bd ea 43 59 bd 27 dd a6 3d
       0.06428709 -0.05668234 -0.053043284 0.0814765
0000e0 f7 ad fa bc e2 56 b0 bd 35 db 67 bd 08 bb 2f bc
       -0.030600531 -0.086103216 -0.056605536 -0.010725744
0000f0 8d 0e 7e bd df 26 8f 3d 25 f5 bd 3d ce 46 03 3e
       -0.062025595 0.06989836 0.09275273 0.12819979
000100 c1 8c 81 bd 1d a1 c1 3d bc 85 33 bd 53 4c 30 bd
       -0.06325675 0.09454558 -0.04382871 -0.04304154
000110 38 ab 0c bd ae 35 91 bd 24 dd 06 3e 57 c8 11 3e
       -0.034342974 -0.07090317 0.13170296 0.1423658
000120 75 c2 bd 3d 18 e6 07 3d c4 ce 22 bd b5 5c 1f bd
       0.09265605 0.03317842 -0.03974797 -0.03890677
000130 84 ee 15 3e 0f 78 52 bd b8 06 71 3d 7b da 9a 3d
       0.14641768 -0.051384028 0.058844298 0.07561203
000140 d6 1a 20 bd be ee 86 3d 40 14 47 bd 8b f2 44 bd
       -0.039088093 0.06588505 -0.048603296 -0.04808287
000150 8f 3d 6d bd de 76 b2 bc cf f1 9c bd dd 9e 4b bd
       -0.057920035 -0.021785196 -0.07663309 -0.04971205
000160 a7 6b 92 3d f2 59 cf bc 47 16 33 bd b8 5d 95 3c
       0.07149439 -0.025311444 -0.043722417 0.018233165
000170 3b e6 53 bd 78 c5 29 bd ac 1c 90 3c f8 41 42 bd
       -0.051733237 -0.041448087 0.017591797 -0.047426194
000180 d9 cb b2 bc 47 a2 88 3d 2b ed 88 3d 4c 38 9a bd
       -0.021825718 0.06671577 0.06685861 -0.07530269
000190 c1 6c 86 bd 6b 37 25 bb f9 c3 bf 3d d6 b5 85 bd
       -0.06563712 -0.0025210034 0.09363551 -0.06528823
0001a0 80 1b 4a bd 67 80 83 3d b0 8d c2 bc f9 a1 82 bd
       -0.049342632 0.06420975 -0.023749202 -0.0637855
0001b0 2a 33 07 3e a5 49 0d 3e ec 88 22 3e 1a 56 63 bd
       0.13203111 0.13797624 0.15872544 -0.055502035
0001c0 23 a1 56 bc f3 46 81 bd e7 61 56 bd 59 58 69 bd
       -0.013099941 -0.063123606 -0.05233946 -0.05696902
0001d0 ea c2 42 bd 45 52 e4 3d 36 16 ff bc b8 26 18 3e
       -0.047549166 0.11148504 -0.03113852 0.1485852
0001e0 f1 cf 42 bd a7 1b 64 3d eb 24 00 bd c9 e4 8e 3d
       -0.04756159 0.055690434 -0.031285208 0.06977231
0001f0 bb ad 5d bd a7 5b b5 3d d4 62 ca bc d8 80 51 bd
       -0.05412076 0.08855372 -0.024705328 -0.051148266
000200 8c 92 ca bc b0 49 81 bd 28 56 0d 3e 22 8f 36 bd
       -0.024728082 -0.06312883 0.13802397 -0.044570096
000210 fd 27 13 bd 99 82 85 bc 96 6e 9a bd 93 ef 68 3d
       -0.035926808 -0.016297625 -0.07540624 0.0568691
000220 df 18 38 bd cc a9 f2 3d 03 e8 c9 3d 40 b9 8d 3d
       -0.044945594 0.118487924 0.09858706 0.06920099
000230 c7 30 4a bd a7 39 65 bd 1c 3d fb bc 02 18 f1 bc
       -0.049362924 -0.055963185 -0.030668788 -0.029430393
000240 11 a1 2b 3e 86 d1 8d bc e3 ac 1b 3d 72 40 6f bd
       0.1676066 -0.017311823 0.038006674 -0.05841107
000250 64 15 5a 3d 72 af c0 bc 32 eb 88 3c 8a d2 29 bd
       0.053243056 -0.023521159 0.016713712 -0.04146055
000260 41 7c 78 bd 37 ee ec 3d 3b b4 40 bd 5d bb 72 bc
       -0.060665373 0.115688734 -0.04704688 -0.014815179
000270 56 a6 4b bd 01 2c 4c bd aa be ae bc 64 e0 2f bd
       -0.049719177 -0.049846653 -0.02133115 -0.042938605
000280 82 2f b0 bc 78 36 7d bd 47 2d c1 bc 2b 1b b7 3d
       -0.021507028 -0.061819524 -0.02358116 0.08940729
000290 ad 45 27 bd 45 c2 7f bd 30 f0 38 bd 2e 25 31 3d
       -0.040837932 -0.06244113 -0.045150936 0.043248348
0002a0 2e d2 97 3d f6 84 38 bd b5 9b 63 bd 9a f3 ff bc
       0.074131355 -0.045048676 -0.055568416 -0.031244088
0002b0 c2 a1 4f bd e1 36 60 bb 7d 6f ce bc 57 a4 16 3d
       -0.050691374 -0.0034212398 -0.025199646 0.03677782
0002c0 e5 62 ad bc 90 dc 05 3e 91 0f 30 bd 93 bf 18 bd
       -0.02116532 0.13072419 -0.042983595 -0.037292074
0002d0 0c 66 89 bd 45 1c 53 bd aa 02 d0 3d 3f df 03 bd
       -0.06708917 -0.05154063 0.10156758 -0.032195326
0002e0 05 88 54 bd 13 3f 5f bd 29 f0 45 bd 0d 40 32 bd
       -0.05188753 -0.05450351 -0.048324738 -0.043518115
0002f0 56 9a 02 3e 69 ae 7d 3c ee a7 3a bd 3e a3 59 3d
       0.12754187 0.015483477 -0.045570306 0.053134196
000300 ec 3b 56 bd 1d 09 93 bc 39 bc aa bc 71 49 eb 3d
       -0.05230324 -0.017948681 -0.020841705 0.11488617
000310 57 eb 79 bd 3e de d1 bc 88 31 92 3d 03 ae 4b bd
       -0.061015453 -0.025618669 0.071383536 -0.049726497
000320 3c 48 55 bd c4 13 f2 3d 36 a7 29 bd 72 04 bc 3d
       -0.05207084 0.11820176 -0.04141923 0.091805354
000330 b1 c1 1e bd 11 bc 56 bd ff ed 2a bd 03 61 81 bd
       -0.038758937 -0.052425448 -0.041730877 -0.06317332
000340 a2 ac 43 3c 4c 07 ea bc 10 2e c3 bc 25 89 68 bd
       0.011943014 -0.028567933 -0.023825675 -0.056771416
000350 fb 59 6c bd 59 b0 6d bd 73 3b 63 bd 59 24 46 3d
       -0.057703 -0.058029506 -0.055476617 0.048374508
000360 42 34 01 3e 9c f4 39 bd a6 72 0f bd 08 88 3b bd
       0.12617591 -0.045399293 -0.035021447 -0.045784026
000370 51 16 52 3d c0 a3 38 bd c1 f5 d6 3d a6 4b 02 3e
       0.051290814 -0.04507804 0.104960926 0.1272417
000380 02 6b bd 3c 3f d9 28 bd 4e 41 36 bd 38 e7 17 bd
       0.023122314 -0.041222807 -0.044495873 -0.03708574
000390 31 4a 6d bd 0e e1 0b bd 50 9e 5a bd ee e9 37 bd
       -0.057932083 -0.034150176 -0.053373635 -0.044900827
0003a0 ff 83 72 bd 0e 2a aa bd 06 54 cc 3b 00 39 7b bd
       -0.059207913 -0.083088025 0.0062356023 -0.061333656
0003b0 03 be d8 3d d3 1d 6e 3c 1e ac 61 bd e9 70 0f bd
       0.10583117 0.014533478 -0.055095784 -0.03501979
0003c0 ef ef 2f bd a8 bd 4c bd 55 02 d5 bc df 53 5e bd
       -0.042953428 -0.049985558 -0.026002089 -0.054279204
0003d0 12 f5 fd bc d8 bf b4 bc bc 0f 54 bd 45 60 7a 3d
       -0.031000648 -0.022064134 -0.051772818 0.061126966
0003e0 7c 3e 45 bd 6f b6 7c bd 36 cd e2 3d ce a4 13 bd
       -0.048155293 -0.06169742 0.11074297 -0.036045842
0003f0 da 16 3c bd a0 22 f0 3d 50 47 1d bd 1f 45 00 3e
       -0.04592023 0.11725354 -0.038398087 0.12526368

bias f4 [31]
000000 72 af 81 bc 35 f1 5e bc 19 cc ea ba 6d 34 b0 bc
       -0.01583073 -0.013607313 -0.0017913609 -0.021509374
000010 92 64 2e bd a6 24 f4 3b 40 7e ca 3c d2 26 a0 bc
       -0.04257638 0.007450658 0.024718404 -0.019549761
000020 bc 03 7c bb 55 e4 c0 bb e0 c0 1b 3b 0d b1 69 bc
       -0.0038454374 -0.0058865943 0.0023766086 -0.014263404
000030 bd a8 07 bc cb 97 27 bd 3d f4 6f bc ef af 92 3c
       -0.008279976 -0.040916245 -0.014645633 0.017906157
000040 2c 14 c0 3c 34 bf bd bc 09 e9 0b bd 3a dd 08 bc
       0.023447119 -0.023162462 -0.034157787 -0.008353526
000050 c3 4d fd bc 6f 73 0e bd e6 98 a1 bc e1 f8 a6 3b
       -0.030920869 -0.034778055 -0.019726228 0.0050955866
000060 90 e2 ef 3c 45 22 b2 bc 42 f1 a0 3a d1 a3 bc 3e
       0.029282838 -0.021744857 0.0012278932 0.36843732
000070 7f 6c 8e 3b df 21 33 bc 59 21 cb bc
       0.00434643 -0.0109333685 -0.024796175
