Logs/lr_ratio/classifier_webcam_amazonsdm_epoch120_1.pt (torch, 32807 bytes, 2 tensors)

weight f4 [31, 256]
000000 12 a0 4b bd 6b 22 21 bd 29 66 58 3d a1 ef 86 3e
       -0.0497132 -0.039339464 0.052831803 0.26354697
000010 00 17 d2 bc e3 77 fa bc 3f cf 18 3d 6f 51 c1 3d
       -0.025645733 -0.030574745 0.03730702 0.0943936
000020 9a 56 89 bb fe 10 a1 3d fd 44 8c 3c a6 2a 1b 3d
       -0.004191232 0.07864569 0.01712274 0.03788247
000030 34 38 3e 3d d7 59 8a bd 9c 53 14 be 1b e4 bc bd
       0.04644032 -0.06755417 -0.1448502 -0.09223195
000040 25 b3 02 3d 73 f8 86 3c 91 8c 87 bd 07 89 8f 3c
       0.031909127 0.016475892 -0.06618608 0.017521394
000050 98 e7 d0 bd df 3f 77 3d 39 0b 9c 3d 0d 36 90 bd
       -0.10200423 0.060363647 0.07619328 -0.07041559
000060 c1 ce 44 bc a7 08 b4 bd 65 f1 ed 3b b8 40 3b 3d
       -0.012012185 -0.08790713 0.0072614425 0.045716017
000070 06 1c 43 bd ce e1 29 bd 94 4f de bc ce 25 ef 39
       -0.047634147 -0.04147511 -0.027137555 0.000456138
000080 06 be 45 bb a9 36 71 bd ee 3f 85 bd 28 6b e9 3b
       -0.0030173077 -0.05889002 -0.06506334 0.0071233697
000090 70 07 d6 3d 03 cc d8 bd d4 a6 3d 3c 3b 05 ff bb
       0.10450637 -0.10585787 0.011575419 -0.007782606
0000a0 de 83 a3 3d 7f 81 c9 3c bf 68 48 bd 04 45 d5 3b
       0.07984136 0.024597881 -0.04892802 0.0065084714
0000b0 e7 8a a6 bd a1 8e c6 bd 3d 8d c5 ba 5a 70 7a 3c
       -0.08131962 -0.09695173 -0.0015072 0.015285576
0000c0 ea 46 8e 3c eb cb 54 3e 92 72 79 3d 0b f7 99 bd
       0.017367799 0.20780914 0.06090028 -0.07517823
0000d0 6c d3 4f bd c7 69 9c bd 04 36 a7 3e b8 75 e3 bd
       -0.050738737 -0.07637363 0.32658398 -0.111064374
0000e0 eb 43 5a bd 05 7b f5 bd ef aa 1a bc 03 f5 60 3d
       -0.053287428 -0.11986355 -0.009440168 0.05492116
0000f0 b6 63 f8 3a 66 03 b1 bd fa 03 dd bd b1 60 02 3d
       0.0018950615 -0.08643226 -0.10791774 0.031830493
000100 e6 65 68 3d 97 24 d0 3c fb e4 1f 3d 58 62 de 3c
       0.056737803 0.025408072 0.039036732 0.027146503
000110 ba 60 cd bd a9 59 01 bd b9 2f aa bd 0f 41 de 3d
       -0.10028215 -0.031579647 -0.083098836 0.10852253
000120 4b b2 4c bd b1 15 2d 3d aa fa 2b 3d c1 9c b8 3d
       -0.04997472 0.042257015 0.0419871 0.090142734
000130 3d 5d ce bd 20 54 a1 bb f0 aa 49 3c e5 02 5b bd
       -0.100763775 -0.0049233586 0.012308821 -0.053469557
000140 d5 ac a1 3d 43 81 08 be ce c0 09 bd b7 6c 31 3d
       0.07894293 -0.1333056 -0.03363114 0.04331657
000150 75 70 4f bd 0c 8d 54 bd dc 66 78 bd fe d3 02 bd
       -0.050644357 -0.051892325 -0.06064497 -0.031940453
000160 7b 5c 94 3b 9e d3 ce bc de 93 30 3e 34 48 98 bd
       0.004527626 -0.025247391 0.17243907 -0.07435647
000170 d2 92 51 3e ab e0 a1 3d be 06 7e 3d 32 27 e3 bd
       0.20466164 0.0790418 0.06201815 -0.1109146
000180 cf 46 d4 3d 0b 77 8b bd 30 eb 8a 3e 4c e3 10 3d
       0.10365068 -0.06809815 0.2713256 0.035373017
000190 72 e1 e3 3c 4c bd 99 3d f1 60 c0 3c 7b ca d6 bc
       0.027817462 0.07506809 0.023483725 -0.026219597
0001a0 36 3c 1d bd 10 56 5f bd 2b 9c 68 3c 3e d9 25 3d
       -0.0383875 -0.054525435 0.01419739 0.04049038
0001b0 c6 cf 80 bd 8f ab d2 3c a0 42 0b bd f9 d8 01 3d
       -0.0628963 0.025716571 -0.033999085 0.031701062
0001c0 a5 64 8f bd df 4a d0 bd 55 ec 93 3c be 65 0e bd
       -0.07001618 -0.101705305 0.018057028 -0.034764998
0001d0 b7 59 34 3e b5 d5 e9 3d 63 a5 f5 bc f1 1d c4 bd
       0.17612348 0.114177145 -0.02998609 -0.09576023
0001e0 98 25 ab bd 1d ee 41 3e 85 6f c1 3c 45 f6 09 3d
       -0.0835678 0.1893849 0.023612747 0.033682127
0001f0 72 81 d7 bc c5 0b dd bd f4 6a b1 bd 9f f8 62 3d
       -0.026306842 -0.107932605 -0.08662978 0.055412885
000200 b8 2b e1 3d 20 fd a3 bd d1 5b a6 3c 2d 3a 10 3e
       0.10994667 -0.08007264 0.020307453 0.14084692
000210 fa 77 e7 3d 21 5f 72 3c c0 c0 06 be 6f ce 43 3d
       0.113021806 0.014793188 -0.13159466 0.047804292
000220 68 a9 a2 bc 62 0a 18 bc e4 62 55 bd d3 89 48 3d
       -0.01985617 -0.009279819 -0.052096263 0.048959564
000230 96 a6 a6 bd 29 08 ad 3c 6e 22 99 bd 48 fa 4d 3d
       -0.081372425 0.021122055 -0.0747727 0.050287515
000240 43 01 e9 3d 6b 06 c3 bd 5b 5b c8 bc ea 1c 52 3d
       0.11377194 -0.095227085 -0.024457624 0.051297106
000250 4a 9e 05 be 42 8d 87 bd f3 a9 aa 3c 82 ac b3 bc
       -0.13048664 -0.0661874 0.020832991 -0.021932844
000260 c5 02 0a 3e 6b 76 9d bd 48 3d 8d bd 16 28 8e 3d
       0.13477619 -0.07688602 -0.06896454 0.069412395
000270 db 0f ad bd a5 6a 4e 3b e5 04 88 3d b4 09 e5 bd
       -0.0845029 0.003149667 0.066415586 -0.11183491
000280 fc 68 b8 bd 1a 10 b8 bc 8c bb 8b bd fa 47 1e bd
       -0.09004399 -0.022468615 -0.06822881 -0.03864286
000290 34 12 6b bd cd af 40 3e e9 f0 b4 bd e8 6d 88 3d
       -0.057390407 0.18817063 -0.088350125 0.06661588
0002a0 dd e3 c0 bd 10 3b 22 bc e0 a3 76 bd 05 fc 0e 3e
       -0.094184615 -0.009901777 -0.060214877 0.13963325
0002b0 10 f9 f2 bc c1 65 d9 bc 72 25 18 bc 6f b8 2a bd
       -0.029659778 -0.026537778 -0.009286271 -0.041679796
0002c0 07 d9 18 bd 31 21 fb bc 44 93 22 3d 50 03 07 bc
       -0.03731635 -0.030655475 0.039691225 -0.008240536
0002d0 db e0 e4 bc 13 19 da bc 9d 96 89 bd 1a d4 74 bd
       -0.02793925 -0.026623284 -0.0671818 -0.05977259
0002e0 05 c6 98 3d 9f 8d 96 3d 06 df 8f bd 52 8c c9 3c
       0.07459644 0.07351231 -0.0702496 0.024603043
0002f0 9c 75 1d be 5a ea 6c bd 29 10 bb bd 37 ab 9d bc
       -0.15376896 -0.057840683 -0.09133942 -0.01924668
000300 6c 81 d2 3c 69 e9 35 bd 85 d3 23 be 35 47 47 bb
       0.025696479 -0.04441205 -0.15998657 -0.0030407433
000310 04 ad 15 3e 9f 76 ad bd c2 2d f4 3d e9 86 3a 3e
       0.14616781 -0.08469891 0.1192279 0.18215527
000320 44 a3 90 bc a7 f5 d6 bd f3 21 fa bd 28 0b 4f 3d
       -0.017655976 -0.10496073 -0.122135065 0.05054775
000330 45 8b 0b 3e 74 b9 f3 bd 17 d7 ac bc 9e 04 4c bd
       0.13627346 -0.11900607 -0.021098657 -0.04980909
000340 1b 39 38 3d ef a3 16 bc 36 01 00 3e f8 4c b5 bd
       0.044976335 -0.009194358 0.12500462 -0.08852571
000350 20 b1 cf bc a4 c0 27 bc 2c a0 e7 bd 98 9d 5c 3d
       -0.025353014 -0.0102388 -0.11309847 0.05386123
000360 c3 bd b2 3d 07 c8 37 3d 00 cc e7 bc ac 0f e7 bd
       0.087276004 0.044868495 -0.028295517 -0.11282286
000370 b8 a0 58 3e 74 6c d8 3d ef 5a be bd 37 f6 65 bd
       0.2115506 0.10567561 -0.09294688 -0.056143012
000380 53 a2 51 bc 74 98 cc 3c 08 97 a5 bd ab ec c2 3d
       -0.012795049 0.024975039 -0.080854475 0.09517797
000390 49 b4 ba 3d 86 bd 11 3c 3d 2a 4a 3d 57 6d 03 bd
       0.09116418 0.008895284 0.049356688 -0.032086696
0003a0 5c 7b 17 3d 2c d9 8e 3d 70 8d 77 3d cf 4d 2d bc
       0.03698288 0.06975016 0.06043762 -0.010577633
0003b0 9c f0 9c 3d 1d ab 3c bd 09 b2 73 bd 63 04 b6 3d
       0.0766308 -0.046061624 -0.05949596 0.088875555
0003c0 ef 55 0e bd 80 53 c2 bd 0c fc 01 bd 4e 6d ca bd
       -0.03474992 -0.094885826 -0.03173451 -0.098841295
0003d0 64 02 e0 bd b8 1d ca 3d 31 3d e0 3d a9 33 7b bd
       -0.10937956 0.0986895 0.10949171 -0.061328564
0003e0 0d 93 01 bd 8f 8f 99 ba 45 30 99 bd 05 de 0c b9
       -0.03163438 -0.0011715757 -0.0747991 -0.00013434149
0003f0 3d 57 f3 3d b4 da 26 bd ce 33 b1 bd a0 a9 24 3c
       0.11881874 -0.040735915 -0.08652459 0.010050207

bias f4 [31]
000000 4e c4 be bc 4b e2 0e bd f3 3b c6 ba d5 d3 95 bc
       -0.023286965 -0.03488378 -0.0015124067 -0.018289486
000010 7d c3 d6 bc 04 c2 e6 bc 5f be f7 bb c8 ce 0a bd
       -0.026216263 -0.028168686 -0.007560536 -0.03388861
000020 08 1b c3 3c 0c 2c 41 bc ad fd a6 bc 0c 05 1a bd
       0.0238166 -0.011790287 -0.020384634 -0.03760247
000030 95 b5 1b 3d fd 91 3c 3b ef 98 e2 3c 2f 9f 54 39
       0.038014967 0.002877354 0.027660815 0.00020277196
000040 c1 4e 2f 3b 62 81 bd 3c 73 72 0a bc 04 c5 fd bc
       0.0026749822 0.023132984 -0.008450138 -0.030977733
000050 32 d2 91 bc cd 7c 43 3b 21 8c ca 3c 3b 53 fb 3b
       -0.017800424 0.0029829026 0.024725022 0.007669834
000060 3c 1a 05 3d 77 9e ca bc 35 9f d5 bb 70 d1 75 3e
       0.032495722 -0.024733765 -0.006519223 0.24005675
000070 6e d0 8f bc d2 d3 23 bc 6a 3f 67 bc
       -0.017555442 -0.009999232 -0.01411424
