Logs/lr_ratio/classifier_webcam_amazonsdm_epoch120_0.01.pt (torch, 32807 bytes, 2 tensors)

weight f4 [31, 256]
0	0xbd53f6ad	-0.05174892
1	0xbcdc56a4	-0.026896782
2	0x3d59d50f	0.053181704
3	0x3e8841c6	0.2661268
4	0xbcb76bfc	-0.022390358
5	0xbcc795bd	-0.024363393
6	0x3d009d97	0.03140029
7	0x3daf3b81	0.08556271
8	0x3a9fc2b9	0.0012188769
9	0x3d9d3402	0.07675935
10	0x3b6d3dbc	0.0036200127
11	0x3d03027a	0.031984784
12	0x3d5e9701	0.054343227
13	0xbd9efb4d	-0.077627756
14	0xbe20eb35	-0.15714724
15	0xbdbcd98f	-0.092211835
16	0x3c6cc2ec	0.01445077
17	0x3cafaf59	0.021445917
18	0xbd848429	-0.0647052
19	0x3c029552	0.007970171
20	0xbdb51608	-0.08842093
21	0x3d449ede	0.04800307
22	0x3d7c50ce	0.0616005
23	0xbd7f6839	-0.062355254
24	0xbc9d9e85	-0.019240627
25	0xbdb26f17	-0.08712595
26	0x3c9e9d6a	0.01936217
27	0x3d4ec98b	0.050485175
28	0xbd2591f0	-0.04042238
29	0xbd36b924	-0.044610158
30	0xbc949b57	-0.018140478
31	0x3c2b5654	0.010457594
32	0x3c077b55	0.008269151
33	0xbd3d8d95	-0.0462776
34	0xbd80655f	-0.06269335
35	0x3c1bb6ca	0.0095040295
36	0x3dde8f17	0.10867136
37	0xbdd16670	-0.102246165
38	0x3cc28dea	0.02374931
39	0xbae8ad8b	-0.0017751915
40	0x3d9fd1d2	0.07803692
41	0x3cd8b48c	0.026453279
42	0xbd478734	-0.048712924
43	0x39f48e2c	0.00046645233
44	0xbd9f0b2b	-0.07765802
45	0xbdd50124	-0.10400608
46	0x3991a828	0.0002778184
47	0x3cb19000	0.02167511
48	0x3bcfeda4	0.0063454676
49	0x3e606f75	0.21917517
50	0x3d5967e5	0.053077597
51	0xbd9ca1ae	-0.076480255
52	0xbd4b60e5	-0.049652953
53	0xbda1a352	-0.07892479
54	0x3ead6466	0.3386566
55	0xbdda7a07	-0.10667806
56	0xbd532cb6	-0.05155631
57	0xbe0ad85d	-0.13559099
58	0x3af9cf38	0.0019058948
59	0x3d5d98e7	0.054100897
60	0x3c350c73	0.011050331
61	0xbda7d375	-0.08194629
62	0xbdc0780c	-0.09397897
63	0x3d013cd8	0.031552166
64	0x3d49c459	0.049259517
65	0x3d1dea33	0.038553428
66	0x3d0cc93e	0.034371607
67	0x3cf4d3a2	0.02988607
68	0xbdd8a9cb	-0.105792604
69	0xbce60964	-0.02808065
70	0xbd9c14e2	-0.076211706
71	0x3dc08494	0.09400287
72	0xbcf190d4	-0.029488005
73	0x3d399709	0.045310054
74	0x3ccc25c1	0.024920346
75	0x3db1b422	0.08676936
76	0xbdeae1dc	-0.114688605
77	0x399d56e6	0.00030010118
78	0x3c566f84	0.013088111
79	0xbd56529c	-0.052324876
80	0x3d7853c3	0.060626756
81	0xbe114e12	-0.14189938
82	0xbd150bd7	-0.036388244
83	0x3cf0a309	0.029374616
84	0xbd43e7cf	-0.04782849
85	0xbd678200	-0.056520462
86	0xbd5e78bb	-0.054314356
87	0xbcab818e	-0.0209358
88	0x3c3b9b51	0.011450605
89	0xbc06866f	-0.008210762
90	0x3e37b286	0.17939195
91	0xbd7c5130	-0.061600864
92	0x3e5975fc	0.21236414
93	0x3da7c112	0.08191122
94	0x3d643ab8	0.05572006
95	0xbddded59	-0.10836286
96	0x3dcc076b	0.09962352
97	0xbd5b51f6	-0.05354496
98	0x3e8e995b	0.27851376
99	0x3d322f94	0.043502405
100	0x3d2d8322	0.042361386
101	0x3d96889e	0.073502764
102	0x3ca8d5b1	0.020609709
103	0xbc0cf68b	-0.008603702
104	0xbd366ecf	-0.04453927
105	0xbd3a8671	-0.04553837
106	0x3bceb2eb	0.00630795
107	0x3d37c975	0.04486986
108	0xbd452450	-0.048130333
109	0x3cda587f	0.026653526
110	0xbcb020c7	-0.021500004
111	0x3cf7c884	0.03024698
112	0xbd9365c5	-0.071971454
113	0xbdd5d7d2	-0.10441555
114	0x3cdfad1e	0.027304228
115	0xbcb747ae	-0.022373047
116	0x3e35482a	0.1770331
117	0x3dcda573	0.100413226
118	0xbcc506ff	-0.024051188
119	0xbdc2c6f6	-0.09510605
120	0xbda43aa7	-0.080189995
121	0x3e48b717	0.19601093
122	0x3cd0cfac	0.02548965
123	0x3d110c07	0.03541186
124	0xbcfd6b68	-0.030935004
125	0xbddfcdf2	-0.10927953
126	0xbdcd3575	-0.10019962
127	0x3d232158	0.03982672
128	0x3dd708f1	0.10499752
129	0xbdad7fec	-0.08471665
130	0x3ce3651a	0.02775817
131	0x3e092357	0.13392387
132	0x3dc75980	0.09733868
133	0x3c876b29	0.01653059
134	0xbe0390fb	-0.12848274
135	0x3d3eedc3	0.046613466
136	0xbc3b510c	-0.011432897
137	0xbb89f99e	-0.004210665
138	0xbd6ede40	-0.058317423
139	0x3d532a2a	0.051553883
140	0xbda86d49	-0.082239695
141	0x3d123522	0.035695203
142	0xbd962b22	-0.07332446
143	0x3d1ac7cc	0.037788197
144	0x3ddee120	0.10882783
145	0xbdc7dc5d	-0.09758828
146	0xbc82934a	-0.015939374
147	0x3d5a9315	0.053362925
148	0xbe0eca5c	-0.13944381
149	0xbd84c890	-0.06483567
150	0x3d20b604	0.039236084
151	0xbcccc415	-0.024995843
152	0x3e02f733	0.12789612
153	0xbd99a40b	-0.07501992
154	0xbd8ef052	-0.06979431
155	0x3d898d17	0.06716364
156	0xbdaccf45	-0.08437971
157	0x3c7dd571	0.015492783
158	0x3d905135	0.07046739
159	0xbdf4b427	-0.11948424
160	0xbdc856fe	-0.097822174
161	0xbcb9ce1b	-0.022681287
162	0xbd85287f	-0.06501865
163	0xbccfdaad	-0.025372827
164	0xbd199197	-0.03749236
165	0x3e4a51ba	0.19757739
166	0xbdb31f90	-0.087462544
167	0x3d8c2095	0.06842152
168	0xbdada1a0	-0.08478093
169	0xbcbd624c	-0.02311816
170	0xbd7f87ed	-0.06238549
171	0x3e0f6e15	0.14006837
172	0xbcf91cd7	-0.03040926
173	0xbc6e388f	-0.014539852
174	0xbb5b228b	-0.0033437337
175	0xbd36dff1	-0.04464716
176	0xbd230c74	-0.039806798
177	0xbc9334ad	-0.017969454
178	0x3d216876	0.039406262
179	0x3a066a33	0.0005127519
180	0xbceadaf0	-0.02866885
181	0xbcc4d77b	-0.02402853
182	0xbd84d853	-0.06486573
183	0xbd70bce9	-0.05877391
184	0x3d7bf399	0.06151161
185	0x3d8a421f	0.06750893
186	0xbd9760a0	-0.07391477
187	0x3d121bd0	0.035671055
188	0xbe243054	-0.1603406
189	0xbd3307a5	-0.043708462
190	0xbda30159	-0.079592414
191	0xbc89836a	-0.016786296
192	0x3c9f19e6	0.019421529
193	0xbd3474ed	-0.04405682
194	0xbe2f9cbd	-0.17149635
195	0xbc355c9f	-0.011069446
196	0x3e12af0b	0.14324586
197	0xbdb24f97	-0.08706587
198	0x3df6ac1b	0.12044545
199	0x3e35994c	0.1773426
200	0xbc9e8c2c	-0.019353949
201	0xbde8fe91	-0.1137668
202	0xbdf83759	-0.12119932
203	0x3d544751	0.051825825
204	0x3e0ad770	0.13558745
205	0xbe0620d4	-0.1309846
206	0xbbbb0ae7	-0.005708087
207	0xbd6a63d1	-0.0572241
208	0x3d7b335a	0.06132827
209	0xbb69f6c2	-0.0035700058
210	0x3ded9270	0.11600196
211	0xbdb03cc4	-0.0860534
212	0xbc21d329	-0.009877005
213	0xbc20c6c4	-0.009813014
214	0xbdf37a1f	-0.11888527
215	0x3d2f4124	0.042786732
216	0x3db7c959	0.08973951
217	0x3d21a107	0.03946021
218	0xbc903295	-0.017602244
219	0xbded146e	-0.11576162
220	0x3e5d6822	0.21621755
221	0x3dcd7842	0.10032703
222	0xbd9df59a	-0.077128604
223	0xbd744259	-0.059633587
224	0xbc6c3797	-0.0144175505
225	0x3ccfa8b4	0.025348999
226	0xbda5c74a	-0.08094652
227	0x3dc15aa9	0.0944112
228	0x3dbce75d	0.092238165
229	0x3bcdff24	0.0062865186
230	0x3d8db24e	0.069187745
231	0xbd0df19d	-0.03465425
232	0x3d34854a	0.044072427
233	0x3d8f94f9	0.07010836
234	0x3d8ec00a	0.06970222
235	0xba2db62d	-0.00066265726
236	0x3dbafb12	0.09129919
237	0xbd0bb322	-0.03410638
238	0xbd4e01e0	-0.050294757
239	0x3da5188d	0.08061323
240	0xbd240104	-0.04004003
241	0xbdd275a1	-0.10276342
242	0xbd0df018	-0.0346528
243	0xbdca0a91	-0.09865297
244	0xbdeee5ae	-0.11664902
245	0x3dcb6f38	0.09933323
246	0x3de933d1	0.11386836
247	0xbd7b03ff	-0.061283108
248	0xbc9afa96	-0.018918317
249	0xbb8091e9	-0.003923644
250	0xbd8317f2	-0.064010516
251	0x3b4bff12	0.0031127376
252	0x3dfac0ff	0.12243842
253	0xbd24bb21	-0.040217523
254	0xbd9b9a52	-0.07597794
255	0x3ca3dad7	0.020001812

bias f4 [31]
0	0xbc96bb4f	-0.018399863
1	0xbcff3ee9	-0.031157928
2	0x3ca2a1fa	0.019852627
3	0xbc861cd1	-0.016371163
4	0xbacdcc7d	-0.0015701201
5	0xbcf0c110	-0.029388934
6	0xbb5bd637	-0.003354443
7	0xbced017d	-0.028931374
8	0xbb1cd434	-0.0023930194
9	0xbc9fad04	-0.01949168
10	0xbb73644e	-0.0037138644
11	0xbd05c802	-0.032661445
12	0x3d81bbaf	0.06334626
13	0x3c2425ed	0.010018808
14	0x3d42b3ba	0.04753468
15	0x3c8d7616	0.017268222
16	0x3d31b0ec	0.043381616
17	0x3caa372d	0.020778263
18	0xbcb61f49	-0.022231715
19	0xbbc0fa1d	-0.005889191
20	0xbcd20b62	-0.025640193
21	0x3b1d1038	0.0023965966
22	0x3ce75e56	0.028243225
23	0x3c48d04e	0.012256695
24	0x3d6eb640	0.058279276
25	0xbcec514d	-0.028847361
26	0xbac5f98d	-0.0015104279
27	0x3d4d3051	0.050094906
28	0xbc2a4dd9	-0.010394537
29	0xbc3aa1bc	-0.0113911
30	0xbd10fa3f	-0.035394903
