Logs/save_test/classifier_dslr_webcamtdm.pt (torch, 32807 bytes, 2 tensors)

weight f4 [31, 256]
0	0xbd5c4447	-0.05377605
1	0x3da19d27	0.078913026
2	0x3cb3f42e	0.02196702
3	0xbd81528a	-0.06314571
4	0x3d693c74	0.05694242
5	0xbd006db3	-0.031354617
6	0xbda7f474	-0.082009226
7	0x3bb04051	0.005378761
8	0xbd4c6812	-0.049903937
9	0x3d9f2042	0.077698246
10	0xbd0947dc	-0.033515796
11	0xbd609082	-0.054825313
12	0x3db75010	0.089508176
13	0xbc90e4b6	-0.017687183
14	0xbc492b4b	-0.012278388
15	0xbcef81c2	-0.029236678
16	0x3d846a60	0.06465602
17	0xbc85b9f9	-0.01632403
18	0xbd2e9300	-0.04262066
19	0xbd82e683	-0.06391623
20	0x3e2067e5	0.15664633
21	0x3e1bbcd6	0.15208754
22	0xbd7545c9	-0.059881005
23	0xbd2837db	-0.041068893
24	0xbd073a29	-0.03301445
25	0x3cd976bb	0.026545873
26	0xbd47896c	-0.04871504
27	0xbcac666b	-0.02104493
28	0x3d8c01fc	0.06836316
29	0xbcf7c06d	-0.030243123
30	0xbcbc6001	-0.022994997
31	0xbd3f5ce6	-0.046719454
32	0x3cbb2a09	0.022847192
33	0xbc8d8322	-0.017274443
34	0xbd12c928	-0.03583637
35	0xbc193f20	-0.009353429
36	0x3d42098a	0.04737238
37	0x3b94a1c4	0.0045358855
38	0x3ce1c409	0.027559297
39	0x3d67289f	0.056435224
40	0xbd07f5b8	-0.03319332
41	0x3cd6d9a3	0.026226824
42	0x3d3454d6	0.04402622
43	0xbc1aa5b8	-0.0094389245
44	0xbc97ef79	-0.018546807
45	0xbd2c5b64	-0.042079344
46	0xbc381afa	-0.0112369
47	0xbd2895c6	-0.04115846
48	0xbcd13d07	-0.025541795
49	0x3d081009	0.033218417
50	0x3d721b2e	0.05910795
51	0x3d96f37c	0.0737066
52	0xbd905d58	-0.07049054
53	0x3de89869	0.11357195
54	0xbd3ac698	-0.04559955
55	0xbd6aa8c5	-0.057289857
56	0xbcd5e37d	-0.026109451
57	0x3dbc2656	0.091869995
58	0x3cd6ecf8	0.026236042
59	0xbca38ac4	-0.01996363
60	0x3d34ac07	0.04410937
61	0x3da166c5	0.0788093
62	0xbd37ac8a	-0.04484228
63	0xbd0df46f	-0.03465694
64	0xbd0a5f76	-0.033782445
65	0xbc5c4c02	-0.013445856
66	0xbd5ba902	-0.053627975
67	0x3ca56c6f	0.020193307
68	0x3dc763c3	0.09735825
69	0x3c039f43	0.008033576
70	0x3defe167	0.11712914
71	0x3d7f0bae	0.062266998
72	0x3da19071	0.07888878
73	0xbc0d1a8d	-0.008612287
74	0xbd902651	-0.07038558
75	0xbd39cfde	-0.045364253
76	0xbd65d136	-0.056107722
77	0xbca3922e	-0.019967165
78	0x3cb78be1	0.022405567
79	0xbd76d9b5	-0.060266215
80	0x3e22e825	0.15908869
81	0xb9c871bb	-0.00038231708
82	0xbd70685b	-0.05869327
83	0xbd63d81b	-0.055626016
84	0xbd733211	-0.05937392
85	0x3cf75de9	0.030196147
86	0xbd6dd6ff	-0.058066364
87	0x3e0edfbe	0.13952538
88	0x3d75035b	0.059817653
89	0xbc36c842	-0.011156144
90	0x3be7bc26	0.0070719896
91	0x3ba3a9a1	0.0049945866
92	0x3add5f69	0.0016889396
93	0xbd0961ce	-0.03354054
94	0x3d29632d	0.041354347
95	0xbd01c342	-0.031680353
96	0xbd3ea4bf	-0.046543833
97	0xbd7c15a1	-0.061544064
98	0x3e0b15de	0.1358256
99	0xbb001a60	-0.001954697
100	0xbcc41fb8	-0.023940906
101	0xbcb50dec	-0.022101365
102	0x3cdd597d	0.02702021
103	0xbd1ccc40	-0.038280725
104	0x3bf0cd68	0.007348705
105	0xbc1ba249	-0.009499141
106	0xbd81e220	-0.06341958
107	0xbc9e0f4a	-0.0192944
108	0xbc2a83eb	-0.010407428
109	0x3d816a9c	0.06319162
110	0xbca8d94c	-0.020611428
111	0xbd5c3cf8	-0.05376908
112	0xbca9ff21	-0.020751538
113	0xbcf60044	-0.030029424
114	0x3e094f0c	0.1340906
115	0x3c81347f	0.015772102
116	0xbd2c9a74	-0.042139485
117	0x3d75bf45	0.059996862
118	0xbd662825	-0.05619063
119	0xbd8ae412	-0.06781782
120	0xbcce3098	-0.025169656
121	0xbd8e603d	-0.0695195
122	0xbd63bd2f	-0.05560034
123	0x3dc9342e	0.098244056
124	0xbcac988b	-0.021068832
125	0xbc87288d	-0.016498828
126	0x3d43864f	0.04773551
127	0xbd64fe87	-0.0559068
128	0xbcc64865	-0.024204442
129	0xbd82db19	-0.06389446
130	0x3da5f154	0.0810267
131	0x3dc93dd4	0.09826246
132	0x3d722df8	0.05912587
133	0x3dab9057	0.0837714
134	0xbd2ecc51	-0.04267532
135	0xbd4396f5	-0.047751386
136	0x3c05ee16	0.00817444
137	0xbaa1231b	-0.0012293787
138	0xbcd36c16	-0.025808375
139	0x3d886055	0.06658999
140	0xbd178e8b	-0.037001174
141	0xbd710e2e	-0.058851413
142	0xbd8425c2	-0.06452514
143	0x3d65f532	0.05614204
144	0x3d54c9f8	0.051950425
145	0xbd415a81	-0.047205452
146	0x3d39ac79	0.0453305
147	0xbd69ad5d	-0.057050098
148	0xbd85918b	-0.06521901
149	0x3b995832	0.004679703
150	0xbd1b8d3b	-0.037976485
151	0x3b5780fb	0.0032883275
152	0xbd453481	-0.048145775
153	0xbd80f56c	-0.062968105
154	0x3d268c3a	0.040661074
155	0xbcf8aaa0	-0.030354798
156	0x3c8ddaac	0.017316185
157	0x3db6be59	0.08923025
158	0xbd1c5d5a	-0.038174964
159	0xbd536415	-0.051609118
160	0x3caf302c	0.021385275
161	0xbd4a615a	-0.049409248
162	0x3bbb080c	0.0057077464
163	0xbd2640fd	-0.04058932
164	0x3d956f6b	0.07296642
165	0xbd557778	-0.052115887
166	0x3d291082	0.04127551
167	0x3d84cea2	0.064847246
168	0xbd7b59d9	-0.061364982
169	0xbd5fe2cb	-0.054659646
170	0x3dbb1587	0.091349654
171	0xbc669d8c	-0.014075648
172	0xbd3e2882	-0.04642535
173	0xbd4e561b	-0.050375085
174	0x3dc7402e	0.09729038
175	0xbcb03728	-0.021510676
176	0xbd261d24	-0.040555134
177	0x3dcf289d	0.10115168
178	0xbc772e2a	-0.01508669
179	0x3dd1fc2d	0.10253177
180	0xbd6a7cb9	-0.05724785
181	0xbd3b3a97	-0.045710173
182	0xbd3f6b35	-0.0467331
183	0xbd2cb653	-0.042166065
184	0xbd2989da	-0.04139123
185	0x3ce37e0b	0.027770063
186	0xbd5c01e4	-0.05371274
187	0xbd636979	-0.05552051
188	0xbd47a8dd	-0.048745025
189	0x3d83f597	0.06443327
190	0x39a833ff	0.00032082197
191	0xbd1dce55	-0.03852685
192	0xbd2594de	-0.040425174
193	0xbd6b5373	-0.05745263
194	0x3b083beb	0.0020787667
195	0xbc5b8afc	-0.013399836
196	0x3d73b4ec	0.059498712
197	0xbd6274b7	-0.05528709
198	0xbd79dbde	-0.061000697
199	0x3de3c89c	0.111222476
200	0x3d3747ce	0.044746213
201	0xbc58ef71	-0.013240681
202	0xbbf3912b	-0.007433077
203	0xbd3a033d	-0.045413245
204	0x3d6991a3	0.057023656
205	0xbd541254	-0.05177529
206	0xbd852bb9	-0.0650248
207	0xbd355bc8	-0.044276983
208	0xbc8ad1fb	-0.01694583
209	0xbc342755	-0.010995706
210	0xbd9e9cc8	-0.077447474
211	0x3b0c5cca	0.0021417611
212	0x3d9429de	0.07234548
213	0xbd785721	-0.060629968
214	0xbd150589	-0.03638223
215	0x3d488e13	0.048963618
216	0x3d656880	0.056007862
217	0xbd0dfa0d	-0.034662295
218	0xbd807b4b	-0.06273516
219	0xbd6d1b8b	-0.057887595
220	0xbd142ea3	-0.03617729
221	0xbd6ce85d	-0.057838786
222	0x3db5d877	0.08879178
223	0xbd5e8748	-0.054328233
224	0xbd2b617a	-0.041841008
225	0xbd311738	-0.043235034
226	0xbd658fab	-0.056045216
227	0xbc8d4f5f	-0.017249761
228	0x3c7cfeba	0.015441591
229	0xbd20bcff	-0.03924274
230	0xbd7fe60c	-0.06247525
231	0x3dfd4816	0.12367265
232	0x3cfa86db	0.030581882
233	0x3c10ce99	0.008838319
234	0xbd8cd106	-0.068758056
235	0xbd12f98d	-0.03588252
236	0xb9f588bb	-0.00046831914
237	0xbc2486cb	-0.010041903
238	0xbcddbab4	-0.027066566
239	0x3d9d2d1e	0.07674621
240	0xbcbbedff	-0.022940634
241	0xbd1716cc	-0.036886975
242	0x3df247c4	0.118300945
243	0x3acd083d	0.0015642714
244	0x3d6d2a0c	0.057901427
245	0x3d68b41b	0.056812387
246	0xbd129c8e	-0.035793833
247	0x3d89edcd	0.0673481
248	0x3d7f78a3	0.062370908
249	0x3d266b1c	0.04062949
250	0x3de32012	0.11090101
251	0xbd8d9b0a	-0.06914337
252	0xbd147513	-0.036244463
253	0xbd61a28a	-0.05508665
254	0xbbff54a5	-0.007792073
255	0xbce25d51	-0.027632387

bias f4 [31]
0	0x3cc0478c	0.023471616
1	0xbcd5abc9	-0.02608289
2	0xbbd5b2fe	-0.0065215817
3	0xbd7a397f	-0.06108999
4	0xbc9da909	-0.019245641
5	0xbd3d6a85	-0.046244163
6	0x3c034f69	0.008014538
7	0x39a4c450	0.00031426782
8	0x39a45095	0.00031340556
9	0xbc4d04f3	-0.012513387
10	0x3bd88f10	0.0066088513
11	0xbc213fbf	-0.009841858
12	0x3d1c4002	0.03814698
13	0xbd1c8f28	-0.038222462
14	0x3d0c0ff1	0.03419489
15	0x3d110664	0.035406485
16	0xbc440253	-0.011963445
17	0xba5f8792	-0.00085269765
18	0xbb3569dd	-0.0027681508
19	0xb95e9ed6	-0.00021230741
20	0xbc5d3f4f	-0.0135038635
21	0xbd254c09	-0.040355716
22	0xbaa43c95	-0.0012530262
23	0x3c800321	0.015626492
24	0x3d0f447f	0.034977432
25	0x3affdbe0	0.0019520484
26	0x3d036316	0.032076918
27	0x3e13bffd	0.14428706
28	0xbce25488	-0.027628198
29	0xbcb1eb21	-0.021718564
30	0xba9f9c34	-0.001217729
