Logs/save_test/classifier_webcam_amazontdm.pt (torch, 32807 bytes, 2 tensors)

weight f4 [31, 256]
000000 7c 06 bb bd 4a 31 a2 3d a1 ca 7d bd d1 cd 93 bd
       -0.09132096 0.079195574 -0.06196082 -0.07216991
000010 a5 32 58 bd d4 5c 4b bd 0e 3d 5a bd 67 97 d2 3d
       -0.052782673 -0.049649075 -0.053280883 0.10282784
000020 37 91 4a bd ae 54 e8 bb 05 75 a9 bc 8d d9 6c bd
       -0.049454894 -0.0070901727 -0.020685682 -0.05782466
000030 96 93 c2 3c c5 fd 6f bd 8b 56 2d bd fd e7 24 3e
       0.023752015 -0.058591623 -0.042318862 0.16104122
000040 ba 89 18 bd ca 43 38 3d 11 63 b1 bc 2b d7 38 bd
       -0.03724072 0.044986524 -0.021653684 -0.045127075
000050 39 97 68 bd 5d e3 79 3c 61 86 56 3c c9 d7 25 bd
       -0.056784842 0.015251962 0.013093562 -0.040488992
000060 95 d1 36 bd d9 b5 61 bd 06 77 98 bc 1c 9e ff bc
       -0.044633467 -0.055105064 -0.018611442 -0.031203322
000070 7c 39 39 bd c1 5b 6e bd 64 8e 6a bd 8d 8c ec 3d
       -0.045220837 -0.058192972 -0.0572647 0.115502454
000080 e9 5f 3a 3a 9a a6 0d bd f9 a2 45 bd c3 f9 62 bd
       0.00071096286 -0.03458271 -0.048251126 -0.055413973
000090 d5 ac 88 bd 57 ff 8c 3d 2a 2f ef bc be 54 b7 3d
       -0.0667359 0.0688464 -0.029197294 0.0895171
0000a0 f6 ed 28 bd 5e 5f cc bc 34 c8 fe 3d e2 6c 66 bd
       -0.041242562 -0.024947818 0.124405295 -0.056256182
0000b0 7f 4d ce bc 8c da 05 bd 7a d8 1b bd ce 70 06 3e
       -0.025183437 -0.032679126 -0.038048245 0.13128969
0000c0 e7 5f 66 3d d6 87 2e bd bc 04 30 bd ea 94 01 bd
       0.056243803 -0.042610012 -0.042973265 -0.031636156
0000d0 59 20 d8 bc 68 c6 36 bd c0 de 45 bd 17 e6 0e bd
       -0.026382612 -0.04462281 -0.048308134 -0.0348874
0000e0 f0 d3 d4 bb 66 6e 0a 3e a1 d5 c1 bc ec aa 75 3d
       -0.0064949915 0.13518676 -0.023661437 0.059977457
0000f0 ea e0 f2 bc da 88 29 bc 21 bc 08 3d 4a 29 44 bd
       -0.029648263 -0.010347569 0.03338254 -0.04789094
000100 e0 60 37 bd 11 fe 26 3e 6b 73 7a bd 58 a9 81 bd
       -0.04477012 0.16307856 -0.061145227 -0.06331128
000110 0c 91 61 bd dc 26 6a bd 15 c2 46 bd b1 99 02 bd
       -0.055069968 -0.057165965 -0.048524935 -0.031884853
000120 7e fd 33 bc 38 54 17 bd c5 1b 33 bd ab 75 e1 3c
       -0.01098573 -0.03694555 -0.043727655 0.027521929
000130 0c 46 2e bd 96 df 52 bd 4f c2 91 3d 37 c0 c1 3d
       -0.04254727 -0.05148276 0.071171395 0.0946049
000140 1b a0 a6 3c fd e2 b4 bd d1 62 f7 3d 27 99 15 3e
       0.020340016 -0.08832357 0.120793946 0.14609204
000150 92 f3 5e bd ff a3 5e 3d e0 c3 87 bd 26 dc f3 3b
       -0.054431506 0.054355618 -0.06629157 0.007442015
000160 3c 08 6d bc 2f 41 24 3c e1 1b f2 3c 45 78 45 bd
       -0.014467295 0.010025307 0.02955431 -0.0482104
000170 c1 a7 a5 bd a3 c1 07 bd 77 0c dd 3d f3 7f 36 3e
       -0.08088637 -0.03314365 0.10793393 0.17822246
000180 1e eb b3 3d d8 d0 d3 bc c3 60 2c bd 71 14 f6 bc
       0.087850794 -0.02585642 -0.042084467 -0.030039044
000190 08 79 94 3d bb 1a 2e bd f8 ea 6c bd 59 e4 72 bd
       0.072496474 -0.04250596 -0.05784127 -0.0592998
0001a0 18 19 10 3d 3a 17 72 bd 58 0a 19 bd 3d 61 55 3d
       0.03518018 -0.05910418 -0.03736338 0.052094687
0001b0 b7 fb b0 3c 0e 80 f2 3d ec 5b 3a 3d f4 93 d1 bc
       0.021604402 0.11840831 0.04549782 -0.025583245
0001c0 cf bb 4e bd a0 a4 f5 bc 4f b1 99 3d aa 1c d0 bc
       -0.050472077 -0.029985726 0.07504522 -0.025404293
0001d0 d8 37 93 bd b0 ea 0b bd fa 10 1e 3e 34 dd 54 bd
       -0.07188386 -0.034159362 0.15436164 -0.05196877
0001e0 66 de fe 3b c9 a7 ad 3d 1c 5c 21 bd 1e 8b 18 bd
       0.007777977 0.08479268 -0.039394483 -0.037242047
0001f0 24 09 04 3d b8 1b b1 3d a3 03 84 3d 61 2d 25 3e
       0.03223528 0.08647865 0.06446006 0.16130592
000200 fd b2 91 bd 25 5d ed 3d 67 51 8b bd 69 8c 9c bc
       -0.071142174 0.115900315 -0.06802636 -0.019109922
000210 9b 13 8f bd a4 f7 15 bc 6e 2b 5d bd 70 ce 5c bd
       -0.06986161 -0.00915328 -0.053996496 -0.05390781
000220 65 f3 c5 3c 05 09 5a bd 94 ed 66 bd 8a 05 7a bd
       0.024163911 -0.053231258 -0.056378916 -0.06104044
000230 b7 0d 65 bd 86 5f b6 3d fc 07 7b 3d 5f b1 1f 3e
       -0.055921283 0.089049384 0.06128691 0.15595005
000240 04 9d 1f bd 13 3f 44 bd ac a8 5e bd de e3 d9 3d
       -0.0389681 -0.047911715 -0.054360077 0.10639165
000250 47 90 59 bd a2 5a f8 bc 64 b4 7e bc 87 e9 6d bb
       -0.05311611 -0.030316655 -0.015545938 -0.0036302523
000260 8f ff aa 3d b9 5b b5 bc f0 0b 20 bd 6c 0b cb 3c
       0.08349525 -0.022138463 -0.039073884 0.02478572
000270 1b 5b 61 bc 51 cc 16 bd 19 1b 3c bd 84 c4 33 bd
       -0.013754631 -0.036815945 -0.04592428 -0.043888584
000280 bd d6 0f bd 9f 99 4a 3d 8d c4 97 3d ee 8c 29 3d
       -0.0351169 0.04946291 0.07410536 0.041394167
000290 c2 a4 49 3d f9 ca 9b 3d 77 ef 98 3c e2 07 44 bd
       0.04922939 0.07607073 0.018668873 -0.04785908
0002a0 60 c1 76 bd 3c 99 49 bd b0 46 90 bc df 9b 1c 3e
       -0.06024301 -0.0492184 -0.017611831 0.15293835
0002b0 59 cc 6d ba 25 2b 31 3b 7a 0a 5e bd 4b 62 70 bb
       -0.00090712827 0.0027033773 -0.05420921 -0.003667968
0002c0 3b 02 52 bd 26 89 6e bd b0 9a a5 bd 36 cb 4c bd
       -0.05127166 -0.058236264 -0.08086145 -0.049998485
0002d0 85 3b 22 3e 74 c4 38 3d 88 52 a0 3d c3 45 72 3d
       0.15843017 0.045109227 0.078282416 0.05914856
0002e0 a2 7d 54 bd 10 e1 54 bd 3e e7 66 3c 89 74 8f 3c
       -0.051877625 -0.05197245 0.014093218 0.017511623
0002f0 e7 58 a7 3c 9a 43 6b bd 9a 49 af 3d 36 76 79 bd
       0.020428134 -0.057437517 0.0855896 -0.06090375
000300 b0 88 65 bd ca 4d 91 3d 04 11 92 3d 8b 27 02 bd
       -0.05603856 0.07094915 0.07132152 -0.031775992
000310 f6 ca b4 3d 6b f6 0a 3e f9 80 8f bc 5c 95 69 bd
       0.08827774 0.13570563 -0.017517554 -0.057027206
000320 2a d2 68 bd a9 e5 3b bd 31 cc 51 bc 5b 2b 82 bc
       -0.056841053 -0.045873318 -0.012805031 -0.015889814
000330 31 d6 00 3e 01 e2 b3 3d f6 b9 58 bd 71 ba dd 3d
       0.12581708 0.08783341 -0.05291172 0.108265765
000340 de a4 ed bc 27 e0 cb 3d 5f cc 91 bd 28 90 34 bd
       -0.029009279 0.09954863 -0.07119059 -0.04408279
000350 84 87 b2 bc 2e a3 ab 3d cd 6f a4 3b 51 a7 dc bc
       -0.021793135 0.083807334 0.0050182105 -0.026935251
000360 e8 75 06 bd 0a a9 6b bd d8 e2 69 bd b7 78 42 bd
       -0.032827288 -0.057534255 -0.0571011 -0.047478404
000370 d7 19 54 bd ba a0 6b bd 59 33 b0 bd 42 46 80 bd
       -0.051782455 -0.057526328 -0.08603544 -0.062634006
000380 b2 66 bf 3c 80 f3 58 bc 6a 65 ca 3c 4b bf 6e bd
       0.023364399 -0.013241649 0.024706561 -0.0582879
000390 ae f3 30 3d 59 77 b5 3d a3 d3 97 3c 51 0e ab 3d
       0.04320114 0.088606544 0.018533533 0.0835234
0003a0 bb 1f dd 3c e7 55 35 bd d6 fc 8f bd 66 b2 03 3d
       0.02699267 -0.044271376 -0.070306465 0.032152556
0003b0 97 e8 04 bd a6 5c 1f 3e 15 04 3d bd 68 47 92 bd
       -0.032448377 0.15562686 -0.04614647 -0.07142526
0003c0 99 2b 1c 3c d8 40 66 bd 69 15 e5 3d 77 bf 9b 3b
       0.009531879 -0.056214184 0.11185724 0.004753049
0003d0 22 4c 5b bd 31 fd 4c bd 49 2c b7 bc 5f 42 8d 3d
       -0.053539403 -0.05004615 -0.022359984 0.06897425
0003e0 91 ce 68 bd 94 fb 6c bd 72 2b 92 bb 3d 6a 4e bd
       -0.056837622 -0.05785711 -0.0044607455 -0.050394285
0003f0 be e0 17 bd f0 b8 31 bd 13 48 54 bd ed 3a 75 bc
       -0.037079565 -0.04338926 -0.051826548 -0.014967662

bias f4 [31]
000000 79 35 fb bc ea 46 2a bd a6 02 7f 3c fb 20 2c bd
       -0.030665146 -0.041571535 0.015564596 -0.04202364
000010 8d ea b4 bc e5 05 7b 3c 0e 5d 3c bb a8 64 c1 bb
       -0.022084499 0.01532123 -0.0028741988 -0.0059018917
000020 b7 46 9a bc 78 5e 23 bd 61 07 47 3b d8 9f aa bb
       -0.018832548 -0.039885014 0.0030369388 -0.005207043
000030 bc a2 2e bb bf a2 4f bc 0e a8 67 3c 3c 1e 72 3c
       -0.002664729 -0.012673079 0.014139188 0.014777716
000040 94 ef f3 3c fa 68 12 bd 44 0a 02 bd 11 43 8e bb
       0.029777326 -0.035744645 -0.03174807 -0.004341491
000050 6b 38 e7 3b 51 25 74 bc ca fc 77 bb 46 90 e5 bc
       0.007056286 -0.014901475 -0.0037839883 -0.028022896
000060 d3 20 72 3b 71 ba 4e bd 87 e0 88 bc 32 16 3c 3b
       0.0036945834 -0.050470773 -0.016708625 0.0028699753
000070 00 52 4b 3b d7 15 b9 3e bd 78 08 bd
       0.0031024218 0.36149475 -0.03331827
