Logs/save_test/classifier_dslr_webcamsdm.pt (torch, 32807 bytes, 2 tensors)

weight f4 [31, 256]
-0.07938251 0.07451797 0.05946566 -0.09658422 0.11620926 -0.052355584 -0.08987097 0.04841031
-0.06123365 0.014154073 -0.043446925 -0.0459922 0.13478358 -0.0058566816 0.0089922 -0.013775558
0.04206079 0.040865388 -0.016242648 -0.109758765 0.23315234 0.15543453 -0.09861214 -0.07661517
-0.03208849 0.018349744 -0.07599426 -0.0042523574 0.02248503 0.0050552716 -0.0062049497 -0.039766233
0.06672017 0.01773462 0.0045012333 -0.022805348 0.024402916 0.009386187 0.056066237 0.011546849
-0.03494025 0.04584574 0.02062075 -0.011939256 -0.026244976 -0.049041513 0.017873306 -0.04340529
-0.020828603 0.029082367 0.037327517 0.051706925 -0.07855431 0.18902749 -0.057871927 -0.07362102
-0.013274884 0.08548203 0.05529899 -0.024459353 0.091139026 0.030590134 -0.08002593 -0.05204051
-0.05714452 -0.04541654 -0.102975 0.101052284 0.15348184 0.014507966 0.08032996 0.04052921
0.08104167 0.050779443 -0.060497083 -0.062193822 -0.059434276 -0.0024656071 0.060668483 -0.06956614
0.14364599 -0.014811704 -0.0840733 -0.085323825 -0.07912992 0.0504005 -0.071455754 0.049477197
0.09202925 0.014041238 0.053268794 0.07658179 -0.0035332297 -0.023486203 -0.023805281 -0.049926035
-0.056143247 -0.10449763 0.16866073 0.0046674246 0.02665496 -0.019848347 0.03513337 -0.03937106
-0.0028302327 0.015994845 -0.0579122 -0.07041944 -0.03473799 0.039830197 -0.034759603 -0.10413695
-0.02479812 -0.009470965 0.10246732 -0.020800352 -0.082287006 0.034733836 -0.06654016 -0.083726324
0.0051997364 -0.09508877 -0.062894695 0.09589671 -0.03257662 0.010313489 0.08014457 -0.068450145
-0.02249212 -0.022291444 0.08233091 0.052114435 0.09340075 0.11494216 -0.020866467 -0.061918862
-0.02865504 0.04419111 -0.0052545737 -0.01799514 -0.048252147 -0.09230557 -0.067504995 0.08310058
0.08820169 -0.073339865 0.037405305 -0.07430164 -0.0867769 0.031106373 -0.056879256 0.014045672
-0.024395373 -0.10584105 0.07613526 -0.03272544 0.028739983 0.08821909 -0.072326355 -0.063209064
-0.0009436518 -0.043508783 0.05277439 -0.02902936 0.11202927 -0.067757316 0.009497282 0.026275152
-0.091622196 -0.047125366 0.053842537 -0.048359066 -0.04403589 -0.055130843 0.06833375 -0.01294676
-0.04426509 0.07825751 -0.024378948 0.13398825 -0.10716393 -0.06810913 -0.08343091 -0.0594421
-0.058823656 0.0046387585 -0.10294642 -0.04485011 -0.07270902 0.05479204 0.0012176443 -0.012046813
-0.004974436 -0.10339365 0.050311923 -0.047824334 0.06897777 -0.03829589 -0.111503795 0.2841089
0.10260165 -0.03225459 0.023734171 -0.052268256 0.10231814 -0.050570317 -0.06437812 0.0020406337
-0.026835438 -0.000358423 -0.05753486 -0.020697752 0.013659423 -0.057330914 0.005889784 0.056440566
0.063233994 -0.06973589 -0.051542774 -0.05068749 0.0055424306 -0.09904009 0.03718069 -0.07886005
-0.043664422 -0.020076111 -0.09144287 0.019639332 0.04587472 -0.030405236 -0.047379673 0.054393437
0.078845166 0.02744154 -0.07651922 -0.024498118 0.0239599 -0.00028670667 0.010575955 0.08683648
-0.023285396 -0.047592685 0.22222738 0.0502419 0.07697369 0.05491173 0.00019227307 0.016274815
0.11467453 0.053244065 0.14355417 -0.09165708 -0.039980017 -0.08909464 -0.003958505 0.011498972
00000000: 4c93 a2bd e19c 983d 4492 733d f3cd c5bd
00000010: 1fff ed3d cf72 56bd 450e b8bd e449 463d
00000020: 23d0 7abd 7ce6 673c 67f5 31bd 5162 3cbd
00000030: b504 0a3e 68e9 bfbb 0554 133c e1b2 61bc
00000040: ef47 2c3d 7762 273d 4d0f 85bc 34c9 e0bd
00000050: 7dbf 6e3e 3b2a 1f3e 29f5 c9bd 6ae8 9cbd
00000060: 386f 03bd 3452 963c e1a2 9bbd 5c57 8bbb
00000070: 8732 b83c b1a6 a53b e452 cbbb ebe1 22bd
00000080: 96a4 883d 3248 913c 157f 933b 48d2 babc
00000090: a0e8 c73c 86c8 193c b6a5 653d ff2e 3d3c
000000a0: 821d 0fbd bec8 3b3d d9ec a83c df9c 43bc
000000b0: b4ff d6bc c1df 48bd 0a6b 923c bfc9 31bd
000000c0: bfa0 aabc 253e ee3c bde4 183d a4ca 533d
000000d0: 15e1 a0bd 6c90 413e 1d0b 6dbd 9ec6 96bd
000000e0: e67e 59bc 3411 af3d 3281 623d fb5e c8bc
000000f0: 19a7 ba3d 2998 fa3c a3e4 a3bd 6e28 55bd
00000100: 5f10 6abd b206 3abd 8fe4 d2bd 80f4 ce3d
00000110: 582a 1d3e d2b2 6d3c 0984 a43d f501 263d
00000120: 2df9 a53d 1bfe 4f3d cacb 77bd f3be 7ebd
00000130: 5b71 73bd 0696 21bb 847f 783d b178 8ebd
00000140: ef17 133e caac 72bc 9f2e acbd 42be aebd
00000150: de0e a2bd c170 4e3d 6557 92bd 9aa8 4a3d
00000160: d579 bc3d 390d 663c 6130 5a3d ead6 9c3d
00000170: c28d 67bb 2366 c0bc 4b03 c3bc 3e7f 4cbd
00000180: 76f6 65bd da02 d6bd 66b5 2c3e 32f1 983b
00000190: 815b da3c 0099 a2bc 02e8 0f3d 8c43 21bd
000001a0: 6d7b 39bb 9f07 833c 5835 6dbd 1138 90bd
000001b0: 6c49 0ebd fd24 233d 1660 0ebd c145 d5bd
000001c0: 6d25 cbbc 1b2c 1bbc 63da d13d 8065 aabc
000001d0: 1786 a8bd 1145 0e3d 3546 88bd b578 abbd
000001e0: 8d62 aa3b e7bd c2bd efce 80bd 7f65 c43d
000001f0: 106f 05bd e8f9 283c d622 a43d 972f 8cbd
00000200: 6541 b8bc 8c9c b6bc 1c9d a83d f275 553d
00000210: e448 bf3d cc66 eb3d 27f0 aabc a29e 7dbd
00000220: f9bd eabc bd01 353d 8f2e acbb 8b6a 93bc
00000230: 0ba4 45bd b40a bdbd 0f40 8abd a330 aa3d
00000240: 16a3 b43d 3633 96bd 4e36 193d 752b 98bd
00000250: 16b8 b1bd cbd2 fe3c 39fa 68bd d11f 663c
00000260: ced8 c7bc 31c3 d8bd ceec 9b3d 1c0b 06bd
00000270: 1d70 eb3c 36ac b43d d71f 94bd c173 81bd
00000280: 665f 77ba 4436 32bd f529 583d fbce edbc
00000290: 9a6f e53d 59c4 8abd 7d9a 1b3c fd3e d73c
000002a0: 6ba4 bbbd 8706 41bd fe89 5c3d 2814 46bd
000002b0: fa5e 34bd e1d0 61bd 91f2 8b3d a61e 54bc
000002c0: 504f 35bd 7945 a03d 5cb6 c7bc 3734 093e
000002d0: c378 dbbd cd7c 8bbd d3dd aabd 8f79 73bd
000002e0: 13f1 70bd ba00 983b 93d5 d2bd c0b4 37bd
000002f0: 77e8 94bd 9e6d 603d 5d99 9f3a ff5f 45bc
00000300: 9800 a3bb 0dc0 d3bd e013 4e3d 73e3 43bd
00000310: 3844 8d3d 27dc 1cbd 1a5c e4bd b976 913e
00000320: d020 d23d 641d 04bd 2a6e c23c 3d17 56bd
00000330: 2c8c d13d d222 4fbd add8 83bd 27bc 053b
00000340: fed5 dbbc b9ea bbb9 aca9 6bbd 558e a9bc
00000350: c6cb 5f3c d2d3 6abd 17ff c03b 392e 673d
00000360: d380 813d b1d1 8ebd 841e 53bd af9d 4fbd
00000370: 479d b53b 88d5 cabd c74a 183d 6181 a1bd
00000380: 77d9 32bd a876 a4bc 6646 bbbd aae2 a03c
00000390: 21e7 3b3d 6714 f9bc 3011 42bd a7cb 5e3d
000003a0: 9379 a13d 15cd e03c 1cb6 9cbd 47b0 c8bc
000003b0: 8d47 c43c 1e51 96b9 c546 2d3c 53d7 b13d
000003c0: 04c1 bebc 8cf0 42bd 938f 633e 73ca 4d3d
000003d0: 62a4 9d3d 1feb 603d e99c 4939 c352 853c
000003e0: 7bda ea3d 7316 5a3d ddff 123e b5b6 bbbd
000003f0: 16c2 23bd 4077 b6bd 59b6 81bb 2f66 3c3c

bias f4 [31]
0.03127269 -0.019701187 0.0026811424 -0.049761582 -0.006601693 -0.032909025 0.010203136 -0.040800687
0.012193494 -0.011263793 0.009195261 -0.0076716244 0.05581331 -0.022422403 0.032032654 0.026840666
-0.013825169 -0.002866564 -0.0016338329 -0.005730375 -0.0048633786 -0.027777646 0.0040356736 0.026906984
0.021700393 -0.008717525 0.044298675 0.031849064 -0.020754768 -0.012910539 0.013253392
00000000: cb17 003d 6264 a1bc 1bb6 2f3b cdd2 4bbd
00000010: 0453 d8bb 9dcb 06bd 0e2b 273c 9f1e 27bd
00000020: 38c7 473c c68b 38bc b8a7 163c 4062 fbbb
00000030: 7f9c 643d 30af b7bc ac34 033d f5e0 db3c
00000040: f682 62bc f7dc 3bbb 5626 d6ba dfc5 bbbb
00000050: fa5c 9fbb f28d e3bc af3d 843b 096c dc3c
00000060: 06c5 b13c f3d3 0ebc 8772 353d 2a74 023d
00000070: e705 aabc ba86 53bc c124 593c
