Logs/save_test/classifier_webcam_dslrtdm.pt (torch, 32807 bytes, 2 tensors)

weight f4 [31, 256]
00000000: 6b5a a7bc 3b69 073e 2c2a 8abd 4a3c 87bd
00000010: db00 67bd e2d2 9f3b b3ed 1fb9 2f81 013e
00000020: 86c1 0bbd 5a47 223d 77d0 83bc cae1 fe3c
00000030: 6602 46bb 0fa4 93bc 0854 aa3d bff5 c43c
00000040: 9f2c 21bd c16c 19bc e88d b9bd 0bea 04bd
00000050: 6e60 3cbd fa4a 2a3e 402b a43c f3ea adbd
00000060: c351 01bd bd44 34bd 7189 293c 9781 4abd
00000070: f840 94bd 7403 b93d 9802 8fbd 94cd d83c
00000080: 164d 95bd a50a 023d c9eb 93bc 08a0 2abd
00000090: fb4a 66bd be81 efbc 82fa 57bd a5c4 3b3d
000000a0: 1815 203e 3b64 36bd 8f3d 3dbc bb3d 30bd
000000b0: ca8f bebc bf8a 043d 47a7 d13d 859e 8bba
000000c0: 995a a2bd 6f68 15bd 7d1c 72bd 4277 43bd
000000d0: fee6 26bd e175 56bd 0731 8cbc afb2 91bd
000000e0: 2082 c73d 6eac 773d 5612 c33d 3b1a 783c
000000f0: 73e9 8bbd 0c34 d33c a1ac 8cbd 9d41 753d
00000100: 4815 e93c 995d 83bd fc9a 22bd 7ce3 153e
00000110: 0b39 3f3d 97db fd3d 6f63 b23c 79be 6cbd
00000120: 9578 b6bc 3225 55bd db0c d6bc 3de1 d6bb
00000130: d895 8e3d e0a9 c03c 0240 a33d 5fe3 d4bc
00000140: 1673 1ebd 592b b73d a25e a93d 507e 32bd
00000150: 5c14 afbd f481 0a3e d314 71bd 1359 5dbd
00000160: a4ce 08bd ac2b bb3d 02b7 5f3d 5e21 6cbc
00000170: ba34 f53b 420c 643c 0244 2cbc daa1 e2bc
00000180: 3295 9f3d e53b a83d 69ff 123e 3721 1abd
00000190: 6bea 773d f39e 96bd 29ba 71bd 0100 a6bd
000001a0: 7d4f 803b 196f cbbc ea0d b7bc 1a0b 80bd
000001b0: 322a cebc ab1b 5ebd 5ad8 87bd e31f 863c
000001c0: 8c35 eabc 3dd3 79bd b71a ae3d 9d5d 63bd
000001d0: 308f f7bc 4cb4 06bc e46b 7cbd a13b febc
000001e0: 93b8 aebd c338 6fbd 6e09 65bd e45c 91bd
000001f0: 319a 9e3c 323c 523d b6bd 81bd 1f73 f03b
00000200: abc5 d23d b5bd afbc c2e3 0a3e f213 1b3e
00000210: f790 68bd 06e4 02bd fbc1 0b3d 74b1 dc3d
00000220: 561b 8ebd 6153 123e cfca 08bd aef7 95bd
00000230: 3d2e 9ebd b81a 75bd 69ea 8dbd 10d6 133d
00000240: 15c8 103c 979d f33c b4a8 05bc ed72 233d
00000250: 8bbf 1e3c 14ab 62bc 92a4 463d a44b 34bd
00000260: 86f8 dcbc 59c3 ebbc 8903 d7bc 8309 973c
00000270: 02a0 903d efc8 69bd 209a 103d e72d 58bd
00000280: 092e 113e 1bbe ef3b fdd8 1d3d e309 3e3c
00000290: 9c67 7bbd 0134 443e 8b27 01bd 0190 8c3d
000002a0: 9923 373d c3f4 41bd 52fb 28bd 1b42 31bd
000002b0: 7121 8cbd 5a2d 24bd c612 c2bc 4c74 8ebd
000002c0: 68c5 83bd f278 d93d 4cad 31bc 10e2 1c3e
000002d0: bc4d db3d 4962 0a3e 3146 103e b843 9cbd
000002e0: e176 91bc 65b8 8abd 5ab0 2cbd c710 52bb
000002f0: 7189 29bd a63d 3dbd 92d8 3ebc a84a fcbc
00000300: d156 91bb 5041 6bbb 4d6d f33c 2868 8abd
00000310: ffa0 59bd 9b3b 98bd 1c1b 8bbd f082 e93c
00000320: f77f 41bc b87e a7bd ceb2 ea3d 747c 36bd
00000330: 2e7f 183d 1a45 533d f2ca 2cbd 1533 cc3b
00000340: fe0a 423d cba5 873d d239 7dbd a152 76bd
00000350: 9f44 7fbc d1ee 80bd 98ca 93bb ec16 76bd
00000360: 138b 59bd 7811 78bd 68ab 62bd 1535 abbc
00000370: b1f1 83bc d4e3 c63d a4a9 acbd e5ad 713d
00000380: efb2 82bd b435 3fbd 6f05 b7bc bc16 2f3d
00000390: 130f 62bd 14df 133d ef8f f0bb 5d2a 8bbb
000003a0: 077b f13c 66eb 5bbd 24b9 e53d 5958 d83d
000003b0: 94ac 9d3d 6a7f 69bd b361 98bd 92e1 a53d
000003c0: bda0 02bd ec7d bdbc 8345 0f3d f50d 76bd
000003d0: 7c4f 153e 3220 55bd 0e38 e93d 02c6 9fbd
000003e0: bcfd 87bc 0d46 79bd 0d4a 76bd 74dc 043d
000003f0: ed39 f93c 943a bb3d 050c abbd 1c6c 82bc
-0.020428857 0.13223736 -0.06746325 -0.06603296 -0.0563973 0.004877434 -0.00015251971 0.12646936
-0.034120105 0.039618827 -0.016090615 0.031113524 -0.0030213832 -0.018022565 0.08316809 0.024042962
-0.039349195 -0.009364308 -0.090602696 -0.032449763 -0.0459904 0.16630164 0.020040154 -0.08492079
-0.031572115 -0.044010866 0.01034771 -0.049439993 -0.07238954 0.09033862 -0.069829166 0.026465215
-0.072900936 0.031748433 -0.018056767 -0.041656524 -0.05622385 -0.02923667 -0.052729137 0.04584183
0.15633047 -0.04452918 -0.011550321 -0.04302762 -0.023261923 0.03235888 0.10236984 -0.0010652101
-0.079274364 -0.03647655 -0.0591092 -0.047721155 -0.040747635 -0.05235851 -0.017113222 -0.07114159
0.09741616 0.060467176 0.09524982 0.015142973 -0.06831636 0.025781654 -0.06868864 0.059877027
0.02845253 -0.06414337 -0.039698586 0.1463756 0.04668526 0.12395399 0.02177593 -0.057798836
-0.022274295 -0.052037425 -0.026129177 -0.006557612 0.06962174 0.023518503 0.07971193 -0.025987325
-0.038683973 0.08943815 0.08270003 -0.043577492 -0.08548805 0.13526136 -0.05885775 -0.054040026
-0.033400193 0.09139189 0.05461789 -0.014412252 0.007483092 0.013918938 -0.010514261 -0.027665067
0.077921286 0.08214549 0.14355244 -0.037629332 0.060526293 -0.07354536 -0.059015427 -0.081054695
0.0039157257 -0.024833249 -0.022345502 -0.062521175 -0.025166605 -0.054225605 -0.06633063 0.016372627
-0.028589986 -0.06099247 0.08501189 -0.0555092 -0.030219644 -0.008221697 -0.06162633 -0.031034293
-0.085312985 -0.05840374 -0.055917196 -0.070977956 0.019360634 0.051326938 -0.063350126 0.0073379423
0.102916084 -0.021452764 0.13563445 0.15144327 -0.056778874 -0.03195574 0.03412054 0.10776034
-0.06938808 0.14289619 -0.03339654 -0.07322632 -0.07723663 -0.059839934 -0.06929476 0.036092818
0.008836766 0.02973823 -0.008157898 0.039904524 0.009689222 -0.0138347335 0.04849679 -0.04401745
-0.026973974 -0.028779672 -0.026246803 0.018437153 0.07061769 -0.05707639 0.035303235 -0.05277815
0.14177717 0.0073163635 0.038537014 0.011599037 -0.061378106 0.19160463 -0.03153185 0.06863404
0.044711683 -0.047352564 -0.041255303 -0.043275934 -0.06842316 -0.040082313 -0.023690592 -0.069557756
-0.06434137 0.106187716 -0.01084454 0.15320611 0.10708186 0.13514055 0.14089276 -0.07630104
-0.017756881 -0.06773452 -0.04216037 -0.0032053457 -0.04139084 -0.04620137 -0.011648314 -0.030797318
-0.004435398 -0.0035897084 0.029715205 -0.067581475 -0.053132053 -0.07433244 -0.0679228 0.028504819
-0.011810294 -0.081784666 0.114598855 -0.04455228 0.037230663 0.051579572 -0.04218573 0.0062316754
0.047373764 0.066234194 -0.06182272 -0.060137395 -0.015580325 -0.062955506 -0.004510235 -0.060080454
-0.053111147 -0.060563534 -0.055339247 -0.020899335 -0.016106458 0.097114235 -0.08430794 0.05900373
-0.06381785 -0.046682075 -0.022341458 0.04274629 -0.055190157 0.036101416 -0.007341377 -0.0042469935
0.02947761 -0.05369129 0.112169534 0.10563726 0.07698932 -0.057006277 -0.0744051 0.08099665
-0.031891573 -0.023131333 0.0349784 -0.060071904 0.14581102 -0.052032657 0.11387645 -0.07801439
-0.016600482 -0.06085782 -0.060129214 0.032436803 0.030423129 0.09142032 -0.08351902 -0.015920691

bias f4 [31]
00000000: d556 09bd c99a f83c 20a3 3fbc 4a61 ca3d
00000010: d26f ce3a 6629 e3bc de08 9fbc 6b3c d1bc
00000020: 09eb b53a 0bd7 42ba 5972 a8bc 4bdb 6a3c
00000030: 3fc7 a93c 09d0 023b 15ca 363c 1de6 16bd
00000040: bcdd 123d 4c05 1bbd 4ebb dabc aa82 aebb
00000050: b17c 2ebd 6eaf a5bc 5281 aa3a dd2e 3f3d
00000060: c9aa 5abc 73aa 453c 76f3 5c3b 128f f93c
00000070: f5e4 4b3c adb7 01bc 46f6 f33c
-0.033530075 0.030347245 -0.011696607 0.09881838 0.0015749878 -0.027729701 -0.019413408 -0.025541505
0.001387925 -0.00074325566 -0.020562338 0.01433451 0.02072489 0.0019960424 0.011156579 -0.036840547
0.035855994 -0.03784685 -0.026700642 -0.005325635 -0.042599384 -0.020225253 0.0013008511 0.04667555
-0.013346382 0.012064564 0.003371445 0.030463729 0.012444724 -0.007917327 0.029780518
