Logs/save_test/classifier_amazon_webcamtdm.pt (torch, 32807 bytes, 2 tensors)

weight f4 [31, 256]
00000000: b6b2 52bd 1e7e 983d 85bc 7bbd a5b1 4cbd
00000010: 6f27 983d 3ace bdbc 2718 863b d69f dc3d
00000020: b139 ff3c 22d6 e33d 6348 d73c 94f2 153e
00000030: 564f 48bd 02d7 14bc a406 bf3d a891 82bd
00000040: 1c44 093d 8e0d 6abd 44ba 60bd 27c5 85bb
00000050: 5c66 40bd 0e96 68bd e646 4cbb 2007 4bbd
00000060: d404 613e d84b 65bd 267b 983d bd75 36bd
00000070: cd9f 62bd bf03 0abd e637 85bd 1e70 b63c
00000080: 6454 dfbc 9c46 89bc 842c 5dbd bda6 8dbd
00000090: 0622 71bd 50b3 21bd 6027 4abd cea6 313e
000000a0: a496 e13d 0777 02bd de5e 57bd d8ba 37bd
000000b0: 6929 3dbd 393a 8bbd ae4c 41bd f9e8 223e
000000c0: fbaa 73bd 11b4 94bd a05d 8abd ebbf 72bd
000000d0: fde6 b43d ef3b 2a3e 58a6 6cbd 0615 05bd
000000e0: ff65 523e ca98 59bd f010 96bd 75bb 8dbd
000000f0: b94f 5b3e 0a5d ad3c 736b 48bd 1bbb 6bbd
00000100: e22a a03d 9e2e 993d 6d1b 20bd 2375 80bd
00000110: f981 8bbd 593b 7cbd 0557 4abd 301a 0dbd
00000120: f17e 3d3e 1f2c 41bd 098d 44bd 33b5 073e
00000130: f949 2f3e 9495 07bd eaca ae3d 9cb9 503d
00000140: 8077 4e3e 0cc8 21bd e99a 193d 2fc7 8a3c
00000150: 678f 71bd 85db 673e 64a1 9abc a040 61bd
00000160: b5a5 e9bc 87e8 2ebd a306 51bd 7934 63bd
00000170: d121 4fbd 8a5e b03d d18e 45bd 1557 2cbd
00000180: e066 71bd 3030 71bd 18c9 413e 4bdb c1bb
00000190: 8e9b 82bd 274b 603d 75f5 6fbd 22e8 49bd
000001a0: 8ce8 89bd b03d 1e3e 31fe 09bd bb02 2bbd
000001b0: da63 02bd a0b0 f4bc 5588 c63d bf5b 8abd
000001c0: 8f0b 273e cf6a 8b3d 3b3b 18bd bc38 833e
000001d0: ede4 9e3d d1b3 57bd 981d 0b3e 2968 95bd
000001e0: 6a79 2fbd 79db 87bd b536 62bd 9870 62b9
000001f0: f183 8c3c 4bb7 5cbd 60ce 58bd f08a a1bd
00000200: d1e7 49bd c4d7 563e 40ca 063e 5f31 783c
00000210: 9bed 9c3d f3b4 4ebd 4943 8fbd 86aa 0ebd
00000220: a168 6dbd 9c78 4bbd 8a62 1dbd ab1f e4bc
00000230: 841c fa3b dc76 6ebd cfa8 49bd b1d6 20bd
00000240: 6396 12bd 05fb 0a3d f8aa 613e 9b4e fbbc
00000250: b006 233e 17dc 8ebd 8ae2 30bc cde1 503e
00000260: d9a5 06bd 37a7 54bd 791a 0b3e 3d1d efbb
00000270: c635 08bd 5b98 6abd 62a4 50bd 054e c43c
00000280: 2807 2bbd 598a 8dbd e806 65bd 4bd7 22bd
00000290: 5379 163e 53cb 05bd 68e3 d93c c083 3dbd
000002a0: 9a9f 28bd 571d 60bd 0f70 63bc beec 8bbd
000002b0: 057e 32bd 9066 69bd c311 2cbd 0ac7 64bd
000002c0: c41c 35bd d97a 423e cc52 a0bd 4f22 40bd
000002d0: 17de f33d 561d ff3c 7f5e 2abd 28c3 633d
000002e0: cdb1 e03a 3a96 22bd 9928 0bbd 5d72 5bbd
000002f0: e43a 18bd f917 3fbd dcc2 e53c 3ca3 243e
00000300: 6248 70bd 5100 413e b171 96bd 4414 533c
00000310: 6b94 98bd 30f5 5a3d b159 7a3d d1e9 6fbd
00000320: 4858 5cbd 2ea2 803d 75df b43d 2f66 1dbd
00000330: 4b96 ce3d 7526 423e 7624 e93a e93c 27bd
00000340: 8dd2 10bd f065 34bd 7b94 ec3c 2f47 9bbd
00000350: ed50 2fbd c8f9 d83d 5f98 003d 29d2 31bd
00000360: 8061 64bc 47ef 5cbd 098c 3fbd 5f09 4fbc
00000370: 40ef 3bba 6a6d 81bd df0a 09bd b873 e7bc
00000380: 4873 1d3e 4900 a9bc 1883 5ebd fdc1 853d
00000390: 6640 8f3d 8526 57bd 779a 5e3d b3f3 dd3b
000003a0: f1d1 15bd ea04 45bd faec 7abd e3e2 72bd
000003b0: 4462 4abd bad9 d23d ee39 14bc 8504 483d
000003c0: 815a 51bd 7f8c 29bd 2caf 4dbd 5b2a 84bd
000003d0: a308 d73b 3c8d 3ebd 85a2 c73d 305e fbbc
000003e0: 4662 c13c 4f8b a8bc fd4a 3cbd 6f3e 213c
000003f0: 34cb 923d 6f9e c43d 946d e1bc 3ec4 8cbc
-0.051439963 0.0744593 -0.061459083 -0.049974103 0.07429396 -0.023169626 0.0040922347 0.10772674
0.03115544 0.11124827 0.026279634 0.14643317 -0.048903786 -0.009084465 0.093274385 -0.06375438
0.03351222 -0.057141833 -0.054865137 -0.0040823403 -0.046972618 -0.05678373 -0.0031170188 -0.04956734
0.21974498 -0.055980533 0.07445364 -0.044545878 -0.05532818 -0.03369498 -0.065048024 0.022270259
-0.02726192 -0.016757302 -0.05399753 -0.069165684 -0.058870338 -0.039477646 -0.049353957 0.17348787
0.110150605 -0.031851795 -0.052580707 -0.044855922 -0.04618207 -0.067982145 -0.047192268 0.15909185
-0.05948923 -0.072609074 -0.06756139 -0.05926506 0.0883312 0.16624425 -0.057775825 -0.032490753
0.20546721 -0.053124227 -0.07327449 -0.0692052 0.2141713 0.021162529 -0.048930597 -0.057551485
0.07820679 0.07479595 -0.039088655 -0.06272342 -0.068119 -0.061580036 -0.049399395 -0.034448802
0.18505456 -0.047161218 -0.047986064 0.13252716 0.17118062 -0.033101633 0.085347965 0.05095826
0.20162773 -0.03949742 0.03750125 0.016940681 -0.05897465 0.22642334 -0.018875785 -0.05499327
-0.028521398 -0.042702224 -0.05103172 -0.055469964 -0.05056936 0.08611782 -0.048231903 -0.042075235
-0.058936 -0.058883846 0.18924367 -0.0059160343 -0.06377326 0.05475917 -0.058583695 -0.049293645
-0.06733808 0.1545322 -0.03368968 -0.04175065 -0.031833507 -0.029869378 0.09693972 -0.067557804
0.16313003 0.068074815 -0.03716586 0.25629222 0.07758508 -0.05266172 0.13585508 -0.072952576
-0.0428404 -0.06633658 -0.055227954 -0.00021594984 0.017152758 -0.05388574 -0.05293119 -0.07887828
-0.049293343 0.20980746 0.1316309 0.01514849 0.07662507 -0.050465535 -0.069952555 -0.034830593
-0.05796111 -0.04967557 -0.038424052 -0.027847132 0.007632794 -0.058218822 -0.049233254 -0.039267246
-0.03578795 0.033930797 0.22037876 -0.03067713 0.1592052 -0.069755726 -0.010796199 0.20398636
-0.03287301 -0.05191728 0.13584317 -0.0072971866 -0.033254407 -0.057274204 -0.050938018 0.023962984
-0.04175487 -0.06911153 -0.05591479 -0.0397561 0.14694719 -0.03266461 0.026597694 -0.046268225
-0.041167833 -0.05471548 -0.013881697 -0.06832264 -0.043577213 -0.056982577 -0.042009126 -0.05585388
-0.044216886 0.18992175 -0.07828292 -0.04690772 0.11907595 0.031141918 -0.041594025 0.055606037
0.0017142833 -0.03969405 -0.033974264 -0.053575862 -0.037165537 -0.04665372 0.028047018 0.16077894
-0.05866278 0.18847777 -0.07345904 0.01288325 -0.074501835 0.053456485 0.061120693 -0.058572594
-0.05379513 0.06280933 0.088316835 -0.038427528 0.1008726 0.18959983 0.0017787355 -0.040829573
-0.035357047 -0.044042528 0.028879395 -0.075819366 -0.042801786 0.10594517 0.031395312 -0.043413315
-0.013939261 -0.05393913 -0.046764407 -0.012636512 -0.0007169135 -0.06319697 -0.033457633 -0.028253421
0.15376008 -0.020630019 -0.05432424 0.06531141 0.06994705 -0.05252697 0.054346528 0.006773436
-0.03657717 -0.04810039 -0.061261155 -0.059298407 -0.04941012 0.10295434 -0.009047015 0.048832435
-0.051111702 -0.041393753 -0.050215885 -0.06453391 0.006562309 -0.04652141 0.09747795 -0.03068456
0.02360643 -0.02057424 -0.045969952 0.0098415455 0.07167664 0.09600531 -0.027518071 -0.01718342

bias f4 [31]
00000000: 356d 0bbb ef98 b3bc 6635 e4bc f091 d0bc
00000010: 51f5 4ebd 2dad a7bc 9e27 b53c 2193 d53c
00000020: 2f98 1abd 49b0 a1bc eb75 0e3c c926 00bb
00000030: 6fa5 133e 9c1d c5bb c2af 09bd 65be a63b
00000040: b34e 253d 7a49 ca3c 6417 e5bc b411 c73d
00000050: 7a74 c83c b1d2 b33c c420 0fbc eb72 3c3c
00000060: e823 a93b beab 2dbd 539e 583b 2cc3 cebc
00000070: 31d8 9bbb 3225 e03c 8191 6cbd
-0.002127481 -0.02192351 -0.027857494 -0.025460213 -0.05052692 -0.020468319 0.022113618 0.026071133
-0.03774279 -0.01973738 0.008695106 -0.0019554368 0.14418577 -0.0060154926 -0.03361488 0.0050886148
0.040358257 0.02469324 -0.027965255 0.097201735 0.024469603 0.021951051 -0.008735839 0.011502008
0.005161751 -0.042400114 0.0033053353 -0.02523955 -0.0047559966 0.027361486 -0.05775595
