Logs/save_test/classifier_amazon_webcamsdm.pt (torch, 32807 bytes, 2 tensors)

weight f4 [31, 256]
000000 ed ca 17 bd 28 ca 7a bd 92 71 40 3d 91 46 bd bd
       -0.03705876 -0.061227947 0.04698331 -0.09241975
000010 c0 24 62 3d b6 7e ca bc b3 79 31 3e b3 a0 14 3d
       0.05521083 -0.024718624 0.17331581 0.036286067
000020 02 e7 48 bd 1d 0d 81 bc 4f 86 b9 bd 4b 26 8c bd
       -0.04904843 -0.015753323 -0.090588205 -0.06843241
000030 33 65 c1 bd f7 63 7b 3b d8 e3 e7 bc 9a 4f 14 3d
       -0.0944313 0.0038359144 -0.028306887 0.036208726
000040 53 19 bd bd f6 74 55 bc f3 38 20 bb ee 5c 07 bd
       -0.09233346 -0.013028374 -0.0024448007 -0.03304761
000050 2a 3a 02 be 2a 10 3e 3c 0f 8d 52 3e b0 a3 3e 3d
       -0.127175 0.0116005335 0.20561622 0.046542823
000060 20 b2 05 3d 5c 42 d3 bc ae cd 15 3b f6 03 06 bd
       0.032640576 -0.025788479 0.002285819 -0.03271862
000070 26 07 60 3d b5 fd da bc e1 03 66 bd b3 00 e4 3c
       0.054694317 -0.026732305 -0.056156043 0.027832365
000080 ca 77 f4 3b e6 98 4c bd 01 e6 79 bb ff 68 80 bd
       0.007460569 -0.049950503 -0.0038131478 -0.062700264
000090 db f3 34 3e 44 49 00 3e 3c 41 52 3e e0 8f 09 3e
       0.17671148 0.12527949 0.20532697 0.1343379
0000a0 d7 e3 80 3c 9d ad 2d 3d 69 e7 1a bd 57 01 cb 3e
       0.015733643 0.0424019 -0.037818346 0.3964946
0000b0 94 3b 0e 3e 07 5e cb ba b3 17 bb bd df 85 a3 bd
       0.13889915 -0.0015515693 -0.0913538 -0.07984518
0000c0 0c 42 03 bd a2 3a d2 bd eb bc 9e bd 85 c8 57 bd
       -0.03204541 -0.102650896 -0.07750877 -0.052681465
0000d0 e9 bc a0 3d fa 3f 13 bd f9 2f cf ba 1e 88 95 bc
       0.07848532 -0.035949685 -0.0015807144 -0.018253382
0000e0 6a 00 ff bd 85 38 39 3d 3c ee 17 3e e9 de a8 bd
       -0.12451251 0.045219917 0.14836973 -0.08245642
0000f0 5b 54 98 bb 71 87 b4 bc 0f 34 06 bc d3 a5 91 3b
       -0.004648728 -0.02203724 -0.008191123 0.0044448166
000100 5a 9f 0e 3d 57 46 6f 3d 5e 87 a5 3d 3d 47 29 bd
       0.03481994 0.05841669 0.0808246 -0.041327704
000110 98 b3 d6 bc 4e e3 88 bd a0 41 85 bd 2b d2 84 3c
       -0.026208684 -0.0668398 -0.065066576 0.016213497
000120 f0 d5 19 ba 59 f5 fe bc d2 bb 24 3d 65 ca 27 bc
       -0.0005868366 -0.03112285 0.040218182 -0.010241126
000130 28 8f 47 bc d6 24 3b bd 79 18 d6 3d 7e b1 47 bc
       -0.012180127 -0.045689426 0.104538865 -0.0121883135
000140 b6 5a 8a 3d 91 94 b5 bd c2 e5 07 bd 54 d6 1a 3d
       0.06755583 -0.088662274 -0.0331781 0.037802055
000150 e9 a1 18 bd c5 22 3e 3c 15 2a e2 3d ae 72 46 3c
       -0.037263785 0.011604969 0.11043183 0.012112303
000160 5b 6d bd 3e 69 b8 a2 3d cc df b5 bb 57 7e 0d bc
       0.36997494 0.0794533 -0.0055503603 -0.008636079
000170 d7 27 2c bd 5c 8c 78 bd 86 dd a2 bd 02 fb ae 39
       -0.04203018 -0.060680732 -0.079524085 0.00033374882
000180 ad e6 bd bd 0e f5 b0 bb 9e 5f c4 3c 7f 7e 14 bd
       -0.092725135 -0.0054003065 0.023971375 -0.03625345
000190 6b d6 a2 bc 0c 9c 88 bd 8c 46 e6 3d c8 03 43 bc
       -0.019877633 -0.066703886 0.112439245 -0.011902757
0001a0 2f 59 28 bd d6 32 59 3d 11 fc 46 bb 87 5a e1 bc
       -0.041100677 0.053026997 -0.0030362646 -0.027508987
0001b0 08 b2 1a bd b9 94 62 3d fa 7a 72 bd dc ec 86 bd
       -0.03776744 0.055317614 -0.05919931 -0.06588146
0001c0 dd 5e 5b 3e ca 7b 61 bd b6 7a 38 bd a3 c9 a8 bd
       0.21422906 -0.055049695 -0.0450389 -0.08241584
0001d0 7f c1 30 be 77 a0 a6 3d 32 2f 69 bd 38 8c 38 bd
       -0.17261313 0.08136075 -0.056929775 -0.045055598
0001e0 82 c6 94 3e 04 33 40 bc 00 8d 63 3d 32 74 c4 bd
       0.290577 -0.011730913 0.05555439 -0.09592475
0001f0 e8 c5 ae bc ca ef 69 3d 20 77 79 3d fe 43 d1 3c
       -0.021334603 0.057113446 0.060904622 0.025545117
000200 3e c3 7e 3d 33 28 27 bd 85 f7 a6 3d 78 ba d4 bc
       0.062197916 -0.04080982 0.08152679 -0.025967821
000210 4c 4b 84 bd 3f f1 72 3d 31 11 96 bd 9e d6 41 3d
       -0.06459674 0.0593121 -0.07327498 0.047323816
000220 d5 ba cb bb 4f 1c 81 3d 5a 83 30 3d 8c 47 f9 bd
       -0.0062173405 0.063042276 0.043094017 -0.121718496
000230 15 a8 29 bd ef c8 e3 3d f7 07 a8 bd ea 75 e8 bd
       -0.04142006 0.111223094 -0.08204644 -0.11350615
000240 60 97 2e bd be 85 7c bc dc a1 d3 3c 68 ee 0d bd
       -0.04262483 -0.015412746 0.025834017 -0.03465119
000250 96 39 90 bd c7 8b 86 bd 32 f7 1b be 63 98 89 3d
       -0.07042234 -0.06569629 -0.15231016 0.067185186
000260 0f 9a 8c 3d 1d 60 c2 3a 34 9f 6e bd 9e cc 25 3d
       0.06865322 0.0014829669 -0.058257297 0.04047834
000270 5b 63 b2 bd 5f 94 19 3e 09 a2 b5 3e f4 bc cc bd
       -0.08710357 0.14998005 0.35475186 -0.099969774
000280 64 6a 66 bd 65 4a a3 bd 79 91 d9 bc dc d6 72 bd
       -0.056253806 -0.07973174 -0.026558625 -0.059286937
000290 a9 e5 86 bc 89 2d 8b 3c a6 fc 3c bb 12 2e 86 bd
       -0.016466932 0.016989486 -0.0028837114 -0.06551756
0002a0 cf 05 a8 3e e8 21 61 3c df fb 52 bc 8a 97 a6 3c
       0.32816932 0.013740994 -0.012877434 0.020335931
0002b0 78 30 c9 3b 4f 71 9f bd 72 e2 83 bd 49 f3 7b bd
       0.006139811 -0.07785284 -0.064396754 -0.06151131
0002c0 c7 02 5b 3c d8 1f 6e 3c 0c fe 06 bd 3f 0f 66 3d
       0.013367361 0.014533959 -0.03295712 0.056166884
0002d0 99 2f 36 bd a9 05 03 3c cd d1 83 bc 4b ab bf 3d
       -0.044478986 0.007996955 -0.016091252 0.093588434
0002e0 71 f7 47 3c d7 8d 36 bd 28 4d 46 bb a0 3e 9a bd
       0.012204991 -0.044568863 -0.003025839 -0.07531476
0002f0 c2 fc 6b 3c 5f 7f 0b bd a3 a1 59 bd 01 c2 96 3d
       0.014403524 -0.034057017 -0.053132664 0.07361222
000300 ab a1 7d bd 91 75 38 bd 2c 88 a3 bd 46 e9 29 bb
       -0.061921757 -0.045033995 -0.07984957 -0.0025926395
000310 09 e1 e5 3d 64 81 99 bd 82 ac ad bd e4 5d 6f 3b
       0.11224563 -0.074953824 -0.08480169 0.003652447
000320 15 ad ae bd 32 c8 db 3b f1 c2 9d 3c 79 3f be bd
       -0.085291065 0.0067072148 0.019257994 -0.0928945
000330 9a 2c 8a bb 82 4c 86 bd a8 8f e7 3c 0b 85 0d 3d
       -0.0042167427 -0.065575615 0.028266743 0.034550708
000340 21 c2 2b bd 14 b4 06 3d 3a 8e a8 bb b5 be e2 3b
       -0.041933183 0.03288658 -0.005143908 0.0069197067
000350 c3 c2 09 bc 63 93 d7 bd 46 e6 46 bd 43 a5 a2 bd
       -0.008408251 -0.10526159 -0.04855945 -0.079416774
000360 c5 03 e5 3d e6 58 59 3c 0d ae 26 bc 74 17 4e 3c
       0.111823596 0.013265824 -0.010173333 0.012578834
000370 cb 20 c1 3b 62 3a 96 3c fc 83 44 3d bb a4 9f 3d
       0.005893802 0.018338386 0.047977433 0.07795092
000380 f6 7c 76 3d 60 f8 de bd e6 d1 62 bd 6b 9d 84 bc
       0.060177766 -0.108872175 -0.055375956 -0.016188344
000390 32 fc 79 bd 0a 10 91 bc 92 5b da bc 1d 71 8a bc
       -0.061031528 -0.017707843 -0.026654992 -0.01689964
0003a0 ba 38 c5 bc d5 2f 65 bd 0b fa 88 bd 16 c5 f0 3d
       -0.0240749 -0.05595382 -0.06688317 0.11756341
0003b0 f1 98 ff bc 94 bf 17 3e 12 ac c5 3c 4b a6 74 3b
       -0.031200858 0.14819175 0.024129901 0.0037330564
0003c0 72 50 6f 3d a2 56 91 3d 77 03 45 3e be 59 5e bd
       0.058426328 0.07096602 0.19239603 -0.054284804
0003d0 c3 7a cf 3d b7 66 e9 bd dd 78 c0 3d f2 a9 95 3c
       0.10130837 -0.113965444 0.09398053 0.018269513
0003e0 91 cd 00 3e d2 f9 32 3d 3b 30 f7 39 65 66 4d bb
       0.12578417 0.04369528 0.00047147446 -0.003134155
0003f0 87 29 72 bd 48 85 90 3d 63 d6 9d bc 37 57 d2 3d
       -0.059121635 0.070566714 -0.019267267 0.10270541

bias f4 [31]
000000 5e e7 e7 ba a4 ca 89 bc a2 9f f4 3a 0d b4 db bc
       -0.0017692854 -0.01682026 0.0018663297 -0.026819253
000010 98 d4 48 bd 36 0a 68 bc 21 6c 17 bc c4 ae 88 3c
       -0.04903087 -0.014162591 -0.0092420885 0.016684897
000020 dd 12 ef bc 9a 37 55 bc 85 2e 41 3c 18 62 ef bc
       -0.0291838 -0.013013745 0.011790876 -0.02922158
000030 b0 53 a4 3d 6d d9 b1 3b 85 30 79 bc 11 73 6a 3b
       0.080237746 0.0054275305 -0.015209322 0.0035774151
000040 5a b6 ab 3c 63 cd 15 3d 3b 76 a7 3b b0 5d 3f 3d
       0.020960975 0.036572825 0.0051105297 0.046720207
000050 47 5a 39 3c e6 b0 97 3c 36 55 03 3a 6c 57 ab 39
       0.011313028 0.018516969 0.0005009951 0.00032680796
000060 ef a8 1d bc b6 8d 40 bd bb b0 12 3c 52 25 0b 3b
       -0.009622796 -0.047010146 0.008953269 0.0021231961
000070 ab 1f 05 bc 90 00 58 3d 63 b6 42 bd
       -0.008125226 0.05273491 -0.04753722
