Logs/save_test/classifier_webcam_amazonsdm.pt (torch, 32807 bytes, 2 tensors)

weight f4 [31, 256]
0	0xbd85243e	-0.06501053
1	0x3d0ebe56	0.034849487
2	0xbbb22477	-0.005436476
3	0xbd146e12	-0.036237784
4	0xbdb1885b	-0.08668586
5	0xbd0d76a5	-0.034536976
6	0x3e58117e	0.21100423
7	0x3d97cc1c	0.07411978
8	0xbd96779f	-0.07347035
9	0xbc139e54	-0.009009916
10	0xbdd387ac	-0.10328612
11	0xbd5fd5fa	-0.054647423
12	0x3d249baf	0.040187534
13	0xbda9cc2b	-0.08290895
14	0xbd6cc999	-0.057809446
15	0xbcd91e76	-0.026503783
16	0xbddbb06b	-0.107270084
17	0xbdc6adf2	-0.09701146
18	0x3c56af40	0.013103306
19	0xbd033163	-0.03202952
20	0xbca9c2c0	-0.020722747
21	0x3b759d5b	0.0037477824
22	0x3bc763ee	0.0060849106
23	0xbd258ae9	-0.04041568
24	0xbd995690	-0.074872136
25	0xbd9eda3e	-0.0775647
26	0x3cc75f01	0.024337294
27	0xbd432957	-0.047646847
28	0xbd2727e3	-0.040809523
29	0x3e2e6f7c	0.17034715
30	0x3e76d426	0.24104366
31	0xbcafc84a	-0.02145781
32	0xbd3297f0	-0.04360193
33	0x3d9c047b	0.07618042
34	0xbcef0714	-0.02917818
35	0xbd5021aa	-0.050813355
36	0xbdafb165	-0.08578757
37	0x3c366091	0.011131422
38	0x3db16eee	0.08663736
39	0x3d10d473	0.035358857
40	0xbda2131a	-0.079137996
41	0xbdab0c4a	-0.08351953
42	0x3dad2fab	0.084563576
43	0x3cc919ca	0.02454843
44	0xbadd8b63	-0.0016902502
45	0x3d2d92d2	0.042376347
46	0xbdce5964	-0.10075644
47	0xbd542036	-0.05178853
48	0xbd3df97b	-0.0463805
49	0xbcc9ffbf	-0.024658082
50	0xbd8fbbd3	-0.070182465
51	0xbd3da312	-0.046298094
52	0x3cb630ba	0.022240032
53	0x3de2a3e7	0.11066418
54	0xbd4830dc	-0.04887472
55	0xbca2852d	-0.019838894
56	0xbd9bb870	-0.07603538
57	0x3d293cda	0.0413178
58	0xbd5d5c4b	-0.054043096
59	0xbdae9979	-0.08525366
60	0xbd294efa	-0.041335084
61	0xbd8227e8	-0.06355268
62	0xbdb32add	-0.0874841
63	0x3ca6cad8	0.020360395
64	0xbc57f460	-0.013180822
65	0xbdae1dcd	-0.08501778
66	0x3d639e24	0.055570737
67	0x3e02a327	0.1275755
68	0x3d067564	0.032826796
69	0xbdb1d943	-0.086840175
70	0x3d2fb79e	0.04289972
71	0x3ddd6df8	0.108119905
72	0x3d572642	0.05252672
73	0x3bb88970	0.005631618
74	0x3dd4921f	0.10379433
75	0xbd9abd08	-0.07555586
76	0x3dd5c777	0.104384355
77	0xbbc8de54	-0.006130019
78	0xbcdbb30d	-0.026818777
79	0x3cc48d9d	0.023993308
80	0x3c858069	0.016296582
81	0xbaa03e3d	-0.001222558
82	0xbc8a5900	-0.016888142
83	0xba8487fc	-0.0010111327
84	0xbc39f133	-0.01134901
85	0xbdcb5801	-0.09928895
86	0xbdd45b8b	-0.10369023
87	0xbcdb1af2	-0.026746247
88	0xbb0b5609	-0.0021260998
89	0xbdfa1acd	-0.12212143
90	0x3c614059	0.013748252
91	0x3d7c5309	0.061602626
92	0xbd83259b	-0.06403657
93	0xba2c481f	-0.0006572026
94	0x3d82ce42	0.06386997
95	0xbd9954d0	-0.0748688
96	0x3cce9862	0.025219146
97	0x3d69cbce	0.05707913
98	0xbcfa7b67	-0.030576421
99	0x3ca4cd9c	0.020117573
100	0xbdb8d104	-0.090242416
101	0x3d0c5b0f	0.034266528
102	0xbd8913c6	-0.066932246
103	0xbdd8c92a	-0.10585244
104	0x3d2ad1df	0.041704055
105	0x3e18f83a	0.14938441
106	0xbd98323f	-0.07431459
107	0x3d9d5402	0.07682039
108	0xbd6c0cec	-0.05762951
109	0x3d2d71a0	0.04234469
110	0x3cedc7c7	0.029025925
111	0xbdd1b1f0	-0.10239017
112	0xbc3be5dc	-0.011468377
113	0xba62c7d0	-0.000865099
114	0xbd77b7c3	-0.060477983
115	0xbc5cb184	-0.013470057
116	0xbc4f8e69	-0.012668231
117	0x3e47aca3	0.1949945
118	0x3d58d992	0.052941866
119	0xbd3e90c5	-0.04652478
120	0xbd77ccf1	-0.06049818
121	0xbc9c5ef1	-0.01908824
122	0xbda0e10c	-0.07855424
123	0xbcea1d8f	-0.028578548
124	0xbdb162cc	-0.08661422
125	0x3b87c37b	0.004143176
126	0x3d87175e	0.06596254
127	0xbd70fa08	-0.0588322
128	0xbd8377c6	-0.06419329
129	0xbd543d2a	-0.051816143
130	0xbda50461	-0.08057476
131	0xbd1be7db	-0.03806291
132	0xbdd44646	-0.10364966
133	0x3d9ab89e	0.07554744
134	0xbdccda27	-0.10002547
135	0x3d4ee29d	0.050509084
136	0xbd40b40f	-0.047046717
137	0x3d58180f	0.05275732
138	0xbbe32ac4	-0.0069325883
139	0xbd686a46	-0.056741975
140	0xbcf4180b	-0.02979662
141	0xbdb7d2e4	-0.08975771
142	0xbcf018b9	-0.029308664
143	0xbd47b0d8	-0.048752636
144	0xbd8ca5b0	-0.0686754
145	0x3d2a8066	0.041626357
146	0x3e2b6b2e	0.16740105
147	0x3c9d2f57	0.019187612
148	0x3e298260	0.1655364
149	0xbcd4c6bb	-0.025973668
150	0xbc7654d1	-0.01503487
151	0x3e3b0302	0.18262866
152	0xbdb42531	-0.08796156
153	0x3d08bab5	0.033381183
154	0x3d90b60e	0.07065974
155	0x3d36b9bd	0.044610728
156	0xbd672b8b	-0.05643801
157	0x3c52919d	0.0128521
158	0xbbaf8776	-0.0053567244
159	0xbd885756	-0.06657283
160	0xbd2c6f37	-0.04209825
161	0xbd5eae69	-0.05436555
162	0x3d7c7eb8	0.061644286
163	0x3d817f30	0.06323087
164	0x3e43ff65	0.19140394
165	0x3d8d7fa2	0.0690911
166	0x3d20c061	0.039245967
167	0xbd9b7d40	-0.07592249
168	0x3dea7360	0.11447787
169	0x3c127bca	0.008940646
170	0xbd26077f	-0.040534493
171	0x3dbf6cf5	0.09346954
172	0xbda16857	-0.07881229
173	0x3d3c9369	0.04603902
174	0xbd2b071f	-0.041754838
175	0x3d8b8917	0.06813257
176	0xbd96c233	-0.07361259
177	0xbce6d5c3	-0.028178101
178	0xbd4282e4	-0.04748811
179	0xbcb4dc4f	-0.022077708
180	0xbd354e09	-0.044263873
181	0xbc81fdca	-0.015868086
182	0x3dab20cd	0.08355866
183	0xbdceef63	-0.10104253
184	0x3de99897	0.11406057
185	0x3c8ea380	0.017411947
186	0xbcda180b	-0.026622793
187	0xbdc344f2	-0.09534635
188	0xbded1703	-0.11576655
189	0x3d716c24	0.05894102
190	0x3d835a68	0.06413728
191	0x3cc8c4ce	0.024507906
192	0xbd803148	-0.062594
193	0x3c601b37	0.0136783635
194	0x3c44a362	0.012001844
195	0x3de2f3dc	0.11081669
196	0x3d61e6a9	0.055151615
197	0x3cb13c46	0.021635186
198	0xbceff1f5	-0.029290179
199	0xb8f95d00	-0.00011890568
200	0xbd84013b	-0.06445547
201	0xbd13eb2b	-0.036112946
202	0x3e311846	0.17294416
203	0x3ce553e5	0.027994106
204	0x3c99dfa1	0.018783392
205	0xbd1a4919	-0.037667368
206	0xbd9e3d9e	-0.07726596
207	0xbcbbec5d	-0.022939855
208	0xbd1df55d	-0.038564075
209	0xbd82d80d	-0.06388865
210	0x3d56fbe9	0.052486334
211	0xbcd7087c	-0.026249163
212	0xbd34c8cf	-0.04413682
213	0x3d0d845f	0.034550067
214	0xbd72ef3f	-0.059310194
215	0xbd8bd2fe	-0.06827353
216	0xbd3df07c	-0.046371922
217	0xbc965366	-0.018350314
218	0x3d63ab05	0.05558302
219	0x3d87ef49	0.06637437
220	0xbcbf2bbe	-0.023336288
221	0xbcbc593f	-0.022991775
222	0x3dddc034	0.108276755
223	0xbd532bbc	-0.05155538
224	0xbd0794dc	-0.033100948
225	0xbcfc48a0	-0.030796349
226	0xbd11b3a1	-0.035571698
227	0xbd981b2d	-0.07427058
228	0x3c474fc3	0.012165013
229	0x3d2ca448	0.04214886
230	0x3ce3e2e0	0.027818143
231	0xbc075331	-0.0082595805
232	0xbd2d8ad7	-0.042368736
233	0x3d4cd797	0.05001029
234	0xbd0839b1	-0.033258144
235	0xbd8a0c18	-0.06740588
236	0x3e787679	0.24263944
237	0xbc9e3771	-0.019313546
238	0xbd30e137	-0.04318353
239	0x3e5f94c8	0.218341
240	0x3bf1bddc	0.0073773693
241	0x3d29d67a	0.041464306
242	0x3e87a49a	0.2649277
243	0xbd87beb9	-0.06628174
244	0x3d7b2f83	0.061324608
245	0xbd923f70	-0.07141006
246	0xbd467ca9	-0.04845873
247	0xbd798cc2	-0.060925253
248	0x3d5c6042	0.053802736
249	0x3e25cedf	0.16192196
250	0x3e531037	0.20611654
251	0x3c51b5ca	0.01279969
252	0x3cf3d26c	0.029763423
253	0x3e01e2d9	0.12684192
254	0xbd622c3f	-0.055217978
255	0x3c8981b0	0.016785473

bias f4 [31]
0	0x3c6f04d5	0.014588554
1	0xbca83ceb	-0.02053686
2	0x3d110902	0.03540898
3	0xbca82de0	-0.020529687
4	0xbcf83321	-0.030297818
5	0x3ca0989e	0.019604024
6	0xbb8369f5	-0.004010434
7	0xbcca2f61	-0.024680795
8	0xbca091cd	-0.019600773
9	0xbc4ade1e	-0.012382058
10	0xbca4b64b	-0.020106455
11	0xbcbacd07	-0.022802843
12	0x3c22f0c1	0.0099450955
13	0xbc7dab88	-0.015482791
14	0x3cd390f5	0.025825957
15	0xbc393ef8	-0.011306517
16	0x3c4e506b	0.012592415
17	0xbb1013f4	-0.002198455
18	0xbca8143c	-0.020517461
19	0xbcee58fc	-0.029095165
20	0xbbd9da3c	-0.00664833
21	0x3b28f2d3	0.00257795
22	0x3c326681	0.010888697
23	0x3cc39d7b	0.023878803
24	0x3d841137	0.06448596
25	0xbc8a34a7	-0.01687081
26	0x3ca893a0	0.020578206
27	0xbcbbdbd5	-0.022931973
28	0xbd1db8f0	-0.03850645
29	0x3e14e45f	0.14540242
30	0xbc96fdf5	-0.018431643
