Logs/save_test/classifier_webcam_dslrsdm.pt (torch, 32807 bytes, 2 tensors)

weight f4 [31, 256]
0.048092924 0.10484815 -0.0936529 -0.08523177 -0.07410627 0.0010014386 0.036635164 0.061419617
-0.018593227 -0.013502628 0.0055953944 0.013019519 0.014458927 0.0155353015 0.024456624 0.047409084
-0.029776026 0.032383967 -0.11289044 0.001270399 -0.03014381 0.1365073 0.029280165 -0.07205524
0.011767922 -0.028702626 0.0027880182 -0.05004855 -0.11272357 0.10162086 -0.08628061 0.045103263
-0.077390395 0.10203972 -0.06724455 -0.040863283 -0.09467355 -0.032056652 -0.06073891 0.07734324
0.030706966 -0.07433252 -0.005242226 -0.03215634 0.04571598 0.0590517 0.0942076 0.0034397189
-0.10124491 -0.0007100597 -0.09500083 -0.03292434 -0.07838828 -0.038266297 0.0038793678 -0.07857198
0.15451187 0.06848311 0.09625873 -0.027357418 -0.07397483 -0.016571298 -0.06025374 0.07466259
0.03560452 -0.07394014 0.0096634 0.10106712 0.025242753 0.0906751 -0.009059208 -0.070629165
-0.033320483 -0.06548403 0.0007217543 -0.005888485 0.1587624 0.042378128 0.08400275 -0.02057461
0.010117836 0.026519842 0.09540276 -0.078386776 -0.10028972 0.09360713 -0.07005966 -0.056328602
-0.03878543 0.12179304 0.0369777 0.027732462 -0.02721765 0.0013291914 0.023850465 0.0055868397
0.050611462 0.011198272 0.124272116 -0.04512445 0.025416423 -0.074214816 -0.05440033 -0.09183802
-0.0018761039 0.011759689 -0.041182924 -0.030536266 -0.038293093 -0.079568915 -0.06166341 0.025457835
-0.0026535604 -0.0643366 0.07798847 -0.09103789 0.028470976 -0.008722047 -0.07883651 -0.04213325
-0.07909427 -0.0846815 -0.045471992 -0.05804374 0.021683125 0.02916247 -0.08649932 0.022057908
0.09333247 0.0038497003 0.110334925 0.20172653 -0.044156518 -0.01765125 0.02992399 -0.0038436805
-0.058919013 0.099141136 -0.04830397 -0.07649637 -0.018810848 -0.09480974 -0.078714244 0.06754929
0.07587611 0.038822904 0.015146193 0.07720816 -0.014707666 0.015966909 0.03889861 -0.0703493
-0.028813615 -0.057138283 -0.01229675 -0.03243851 0.010519836 -0.10506312 0.07244862 -0.015649272
0.10745215 0.021844566 0.03129514 0.035573598 -0.10666222 0.25262168 -0.02844793 0.041998327
0.06371979 -0.057023283 -0.053633895 -0.006712006 -0.11082947 0.02253549 -0.025274152 -0.057393577
-0.105290666 0.052829675 0.010144203 0.11535475 0.07847836 0.12737401 0.23183477 -0.10675145
0.022859126 -0.08636456 -0.029891625 -0.010244229 -0.04834171 -0.0856004 -0.004450916 -0.0043656672
0.06724612 -0.038289126 0.030991044 -0.09419761 -0.10382159 -0.07381396 -0.006368553 0.049606126
0.035958182 -0.12047656 0.021560028 -0.02379161 0.049269214 0.1752709 -0.049338266 0.03307783
0.05918378 0.0864643 -0.017432934 -0.064005 0.017472954 -0.0581246 -0.027831322 -0.09851154
-0.056260217 -0.09683101 -0.0761962 0.01018385 -0.0632583 0.031355046 -0.08025801 0.03872846
-0.059864152 -0.06494202 0.01007305 0.10305475 -0.09326172 0.1080035 -0.0026192986 0.027103696
0.015584454 -0.02073772 0.21636003 0.13043006 0.081398934 -0.053125616 -0.10645875 0.009154666
0.01751425 0.055608746 0.021403354 -0.07025553 0.15086003 -0.03282987 0.059466776 -0.092871144
0.038691185 -0.09292073 -0.06617487 0.047385115 0.026812078 0.009447773 -0.0896863 -0.012552667
00000000: 16fd 443d a0ba d63d 17cd bfbd ff8d aebd
00000010: 07c5 97bd b442 833a c10e 163d 2393 7b3d
00000020: d350 98bc 203a 5dbc 9259 b73b d24f 553c
00000030: 23e5 6c3c c787 7e3c 4259 c83c 0730 423d
00000040: daec f3bc 0da5 043d 1a33 e7bd 8483 a63a
00000050: 27f0 f6bc 92c8 0b3e f5dc ef3c b391 93bd
00000060: 3ece 403c c521 ebbc 2fb7 363b b5ff 4cbd
00000070: 9ddb e6bd 991e d03d e3b3 b0bd 33be 383d
00000080: db7e 9ebd 33fa d03d 83b7 89bd 4260 27bd
00000090: 35e4 c1bd d64d 03bd 5dc9 78bd 2266 9e3d
000000a0: 2d8d fb3c a63b 98bd fbc6 abbb 5eb6 03bd
000000b0: ae40 3b3d 32e0 713d eaef c03d e86c 613b
000000c0: 7e59 cfbd 4d23 3aba cc8f c2bd acdb 06bd
000000d0: 098a a0bd 1fbd 1cbd fe3c 7e3b 59ea a0bd
000000e0: 5c38 1e3e df40 8c3d 4c23 c53d aa1c e0bc
000000f0: 1e80 97bd 88c0 87bc a0cc 76bd b3e8 983d
00000100: 0cd6 113d ee6d 97bd 3d53 1e3c 47fc ce3d
00000110: e4c9 ce3c deb3 b93d 136d 14bc 06a6 90bd
00000120: 0f7b 08bd 7e1c 86bd 1c34 3d3a 31f4 c0bb
00000130: 9c92 223e b094 2d3d a209 ac3d 168c a8bc
00000140: 48c5 253c 2440 d93c 8662 c33d 3f89 a0bd
00000150: b264 cdbd 18b5 bf3d 707b 8fbd d2b8 66bd
00000160: 79dd 1ebd a16e f93d ee75 173d 302f e33c
00000170: 8df7 debc 4338 ae3a 0d62 c33c cf11 b73b
00000180: f74d 4f3d f578 373c 6182 fe3d 6ad4 38bd
00000190: 1a36 d03c f0fd 97bd e1d2 5ebd 9215 bcbd
000001a0: 9ae7 f5ba b6ab 403c 6daf 28bd 3127 fabc
000001b0: 38d9 1cbd 07f5 a2bd c692 7cbd f38c d03c
000001c0: 5be7 2dbb e8c2 83bd 6bb8 9f3d 1372 babd
000001d0: f73b e93c ebe6 0ebc 0975 a1bd ea93 2cbd
000001e0: 2dfc a1bd 7f6d adbd d740 3abd 46bf 6dbd
000001f0: cfa0 b13c 22e6 ee3c 8e26 b1bd c9b2 b43c
00000200: 1825 bf3d 414b 7c3b 47f7 e13d 6691 4e3e
00000210: 77dd 34bd 5b99 90bc 2823 f53c 42e6 7bbb
00000220: 1055 71bd 820a cb3d 62da 45bd 21aa 9cbd
00000230: 3519 9abc 9c2b c2bd ef34 a1bd 4857 8a3d
00000240: ef64 9b3d c404 1f3d bd27 783c 501f 9e3d
00000250: 6cf8 70bc 09cd 823c 2654 1f3d 4b13 90bd
00000260: 880a ecbc d509 6abd 4f78 49bc 3ede 04bd
00000270: 645b 2c3c 552b d7bd f15f 943d e732 80bc
00000280: df0f dc3d 60f3 b23c 552f 003d 9fb5 113d
00000290: b971 dabd a157 813e a20b e9bc 7006 2c3d
000002a0: 857f 823d 3f91 69bd 37af 5bbd 63f0 dbbb
000002b0: 90fa e2bd 599c b83c bd0b cfbc 8715 6bbd
000002c0: a2a2 d7bd ee63 583d df33 263c 1c3f ec3d
000002d0: 43b9 a03d 556e 023e 1866 6d3e 81a0 dabd
000002e0: 1043 bb3c e7df b0bd 48df f4bc 69d7 27bc
000002f0: f501 46bd 434f afbd fdd8 91bb df0d 8fbb
00000300: 55b8 893d 0fd5 1cbd eee0 fd3c adea c0bd
00000310: 6aa0 d4bd c62b 97bd 4baf d0bb cb2f 4b3d
00000320: e348 133d 6abc f6bd a89e b03c 9fe6 c2bc
00000330: 84ce 493d 377a 333e ec16 4abd 9e7c 073d
00000340: b16a 723d 3214 b13d 83cf 8ebc 0e15 83bd
00000350: 7123 8f3c 1014 6ebd 83fe e3bc 6bc0 c9bd
00000360: 1d71 66bd 564f c6bd c10c 9cbd 2ada 263c
00000370: 918d 81bd 266e 003d 505e a4bd bca1 1e3d
00000380: 1d34 75bd 5200 85bd 6f09 253c 5e0e d33d
00000390: 0000 bfbd f030 dd3d 8aa8 2bbb 9208 de3c
000003a0: f055 7f3c 27e2 a9bc 7c8d 5d3e 758f 053e
000003b0: 7cb4 a63d 3f9a 59bd 0c07 dabd 74fd 153c
000003c0: 0b7a 8f3c ffc5 633d 1656 af3c 22e2 8fbd
000003d0: 0d7b 1a3e 9d78 06bd 6f93 733d 3a33 bebd
000003e0: a67a 1e3d 394d bebd b186 87bd e516 423d
000003f0: 01a5 db3c d5ca 1a3c 73ad b7bd b4a9 4dbc

bias f4 [31]
-0.028871195 0.018270649 -0.009766564 -0.017287318 0.0033537552 -0.017116383 -0.011045453 -0.02719308
0.005086798 0.009188335 -0.012548935 0.014764615 0.031562436 0.014967802 -0.0013797914 -0.024513373
0.0566651 -0.021674432 -0.020915316 0.0024853358 -0.049752686 -0.02388561 0.004559492 0.05433971
0.005820508 0.011594 0.008498889 0.034965236 0.010546137 -0.011442437 0.0093563795
00000000: 4983 ecbc 54ac 953c f003 20bc 229e 8dbc
00000010: adca 5b3b a837 8cbc fdf7 34bc 06c4 debc
00000020: 28af a63b ac8a 163c 0c9a 4dbc 49e7 713c
00000030: 9d47 013d 833b 753c 1eda b4ba 45d0 c8bc
00000040: aa19 683d 948e b1bc 9956 abbc 04e1 223b
00000050: 79c9 4bbd c1ab c3bc cb67 953b 5193 5e3d
00000060: f6b9 be3b c3f4 3d3c ed3e 0b3c b537 0f3d
00000070: b4c9 2c3c 0f79 3bbc 804b 193c
